pytorch-maml-rl/saves/maml-halfcheetah-dir/policy-3.pt (torch_old, 52201 bytes, 7 tensors)

sigma f4 [6]
00000000: a49b 14bd 07ea 02bc 7e65 ac3b 9ab1 8fbd
00000010: 1b04 d6bc 7b57 e83c
-0.036281243 -0.007990367 0.0052611222 -0.07016297 -0.026125005 0.028362026

layer1.weight f4 [100, 20]
00000000: 1428 50be aac3 363e 199b 053d 7e0d c53d
00000010: 0351 71bd 0551 46be 2d23 1ebd 984a 36be
00000020: 5a24 d2bd d61c 3f3d 3c1d 5c3e d3e7 693c
00000030: f232 af3d 2688 313e ce86 1d3d 2d78 063d
00000040: 345f 20be c9f4 b23d 940c 2dbe c787 20be
00000050: 4284 a93d 714c 90bd c4f4 36be 85bb f2bd
00000060: d3fe 0ebd 5528 343e 50e1 613e a26a ea3d
00000070: 8053 91bd 0a97 193e cec4 c23d a36e 6e3d
00000080: 4894 40be 70fa 0c3e 0eff 5f3d 5b2f 53be
00000090: fb0f 2ebe ee41 f03b 80e0 d83c ec85 3bbd
000000a0: 5ae3 ec3d 0850 86bd 723b 063b 5761 82bc
000000b0: 71c3 5b3e 5ce4 303e 3b88 c6bd 46e4 c5bc
000000c0: b2b8 d93d 3514 173e 152f d23b 6c89 f1bc
000000d0: 246e d33c e41e d7bc 90b9 e73d fb07 17be
000000e0: d0a2 e53d cf0c 243e 185d 51be 278d 1f3d
000000f0: aad5 8ebd 319d cb3d 0b9d 233e 15a3 5c3e
00000100: 939b 93b9 de40 0ebe de3a 48be b930 1abe
00000110: 658a 373d 7968 8fbc b4fc 6d3e 8365 3dbe
00000120: 11fc 2a3e a085 2a3e 6a24 783d 46be fbbd
00000130: 8574 eebd 9bdb a33d 266d aabd 91f7 0fbe
00000140: 43db 24be b2f8 983c 3e6c 523e 1cb6 64be
00000150: d0ea a53d 670e da3d 65cb 513e bbfb ba3d
00000160: 5293 20bd 8f30 8fbd 8ea9 3ebc 03e4 45be
00000170: 6cc6 a53c 435e 21bd 4b43 4dbe 3f75 d6bd
00000180: 2951 27be 4336 523e 2992 60be 0d55 8e3d
00000190: f278 e5bd 400a 223e 81f8 c43d 1329 0fbe
000001a0: f4b6 5bbe 9775 dfbd e91c 123e c828 f2bc
000001b0: 18eb 443e 4b90 5fbe d832 debd 5f21 533d
000001c0: e83d 61bd d644 393d 2408 143c d475 9f3d
000001d0: 7cfb 7bbd 90af d93d 142f 34be 9942 003e
000001e0: 5374 2abd 1a74 4e3e b2dd db3d c28f b33c
000001f0: e08c f6bc e056 f6bd 4869 313e fdc7 dd3d
00000200: 3086 ddbd aed3 06be 0813 b43d a091 e33d
00000210: 443a b03b a279 8cbd fc27 c03d a930 32be
00000220: 3918 ef3d a5bb 593e e245 1a3e f009 d0bb
00000230: 88eb 57bd 93ef 60be bb0f 9fbc ac47 d5bd
00000240: d0fb 44be a0fe 98bd 0002 3d3e 9db3 47be
00000250: fcda 4abe 2cb9 fcbd 477d a23d fcbb 11bd
00000260: 8971 28be d53b 413e 3fa4 2fbe 9607 743e
00000270: c4bb 43be 03ed 0a3e ac16 073e a45a cbbd
00000280: 1e27 4a3e 1e2b db3d 237f 98bb 428a 303b
00000290: c1d8 783d 5726 48bd d41a 53be 4f80 cebd
000002a0: a774 5ebe 96fa dc3b 9ec8 b7ba 797c 3ebe
000002b0: caa3 8c3d 09b1 1bbe 2dfc 16be 38d3 81bd
000002c0: 4fae 3e3d e6a1 50bd 021b 1b3e bb87 76bd
000002d0: 1ef5 97bd c9f1 5ebe 0fa8 5e3d b907 48be
000002e0: 0c4b 52be a9a6 e7bd 3cf8 41bd 34a4 c8bd
000002f0: 5b82 04be 9680 c1bd bc0a 4cbe b0d6 e6bd
00000300: 6a75 1d3d 96ab aabd 69c4 fbbd 2164 2f3e
00000310: 63e7 563e 229f 08bd 8009 a33b 8ad3 6f3c
00000320: e3d5 50be 94b8 7f3c fb43 3fbe 1221 7fbd
00000330: fc09 9a3c 0c62 033d 4744 9dbd e4c0 e33d
00000340: 608d c2bd 1e87 aa3d 7893 823d 848b eabd
00000350: 4e03 65be ec81 f63d 5a9c b7bd 59d3 1c3e
00000360: 382c 32be dab7 9dbc b8eb 43be 3478 23be
00000370: 6ed7 a6bd ae6c 9fbd 3029 d1bd cd24 3a3e
00000380: 782a 74bd f0cc 233e fb08 053e e966 4bbe
00000390: 6ff9 a83d bff9 1c3e 6dd7 123e 5c85 07be
000003a0: 6c94 86bd c6a6 a2bd f1b9 2bbe 3c10 00bd
000003b0: d863 043e bdde 8abd 2c41 993d 15fe 133e
000003c0: f896 27be c5a9 b53d 20da 09be 45b4 403e
000003d0: 671f 00be f7d9 fe3d c45c 4a3e 3700 5b3e
000003e0: 59f8 573e d19b acbd 72ac 9cbd 4544 f83d
000003f0: 8aa3 373b 5f95 583e eeff 06bd fa92 a83d
-0.20327789 0.17848077 0.032618616 0.09621714 -0.05891515 -0.19366844 -0.038607765 -0.17801893
-0.1026084 0.04665836 0.21495527 0.014276463 0.08554639 0.17337093 0.038458638 0.032829452
-0.15661317 0.08738095 -0.1689933 -0.15676795 0.08277179 -0.0704583 -0.17866808 -0.11852173
-0.034910988 0.1759351 0.22058606 0.1144612 -0.070960045 0.14999023 0.09510194 0.05821098
-0.18806565 0.1376741 0.0546866 -0.20623533 -0.16998284 0.007332078 0.026474237 -0.045782015
0.11566801 -0.065582335 0.002048221 -0.015915556 0.21461274 0.17274612 -0.09693953 -0.0241567
0.10630931 0.14753802 0.006414304 -0.029484473 0.025809355 -0.026259847 0.1131469 -0.14749138
0.11212695 0.16020511 -0.20445669 0.038952973 -0.06974347 0.09942091 0.15977876 0.21546586
-0.00028153937 -0.13891932 -0.19553706 -0.15057649 0.044809718 -0.017505871 0.2324093 -0.18495755
0.16697718 0.16652536 0.060581602 -0.12292151 -0.11643318 0.08000871 -0.083216 -0.14059283
-0.16099267 0.018673275 0.20549104 -0.22335094 0.081014276 0.10647278 0.20487745 0.09130045
-0.039202996 -0.06991684 -0.011637105 -0.19325261 0.020236216 -0.039396536 -0.20045201 -0.10471582
-0.16339554 0.20528512 -0.21930756 0.06949816 -0.11204709 0.15824223 0.09617711 -0.13980512
-0.2145651 -0.109111 0.14268841 -0.029560462 0.19230306 -0.21832387 -0.108495414 0.051545497
-0.05499068 0.045231663 0.009035144 0.07786146 -0.06151913 0.10629189 -0.17596084 0.12525405
-0.04161484 0.20161477 0.107356444 0.021919135 -0.030096471 -0.12028289 0.17325318 0.1082916
-0.1081661 -0.13166687 0.087926924 0.1111176 0.0053780396 -0.06859137 0.093826264 -0.17401375
0.11674542 0.21262987 0.1506572 -0.006348841 -0.052714854 -0.2196639 -0.01941668 -0.10414061
-0.19236684 -0.07470441 0.18457794 -0.19502111 -0.19810098 -0.12340006 0.07934051 -0.035579666
-0.1644956 0.1887048 -0.17152499 0.23831019 -0.19114596 0.13566975 0.13192242 -0.09929398
0.19741485 0.10701583 -0.0046538278 0.0026937877 0.060753588 -0.04886469 -0.20615703 -0.10083067
-0.21724187 0.0067437394 -0.001402158 -0.1860217 0.06867178 -0.15204252 -0.14744635 -0.06339115
0.046552952 -0.05093565 0.15147021 -0.060188036 -0.07419799 -0.21771921 0.054359492 -0.19534196
-0.2053644 -0.11311085 -0.047355875 -0.09796944 -0.12940352 -0.09448354 -0.1992597 -0.11271417
0.038442053 -0.08333509 -0.12293322 0.1712804 0.20986705 -0.033354886 0.0049754977 0.014637837
-0.20394091 0.015607972 -0.18678276 -0.062287398 0.018803589 0.032075927 -0.076790385 0.11120775
-0.094996214 0.08326553 0.06375784 -0.11452392 -0.22364542 0.120364994 -0.089653686 0.15314998
-0.1739968 -0.019252706 -0.19132888 -0.15963823 -0.08146559 -0.07784401 -0.10212934 0.18178101
-0.059610814 0.15996146 0.12991707 -0.19863476 0.08250701 0.15329646 0.14339991 -0.13234466
-0.06571278 -0.07941966 -0.1677015 -0.031265482 0.12928712 -0.06780765 0.07483134 0.14452393
-0.16366184 0.088702716 -0.13462114 0.18818767 -0.12511979 0.12443917 0.1976195 0.213868
0.21090831 -0.08428157 -0.07650079 0.121223964 0.002802106 0.2115073 -0.032958917 0.082311586

layer1.bias f4 [100]
00000000: 6f12 193b 9830 5eb9 8d71 17bb 7e68 29bb
00000010: 8e64 1aba b723 06bb 07c0 b5ba 2c92 93ba
00000020: 602b fc38 1f67 08bb 57a1 44ba 0095 34b8
00000030: 41eb 453b 18c7 8dbb 034c 4d3a 203d 35bb
00000040: c377 94bb b77b 4439 2f03 4f3b f8a9 0cbb
00000050: 6ab4 9b3a b61c 88ba 26ec 8bb9 5075 6dbb
00000060: 0c90 183b dad0 00bc 2ccf cdba 73ce 913b
00000070: 193a 64bb 25d6 68bb 9e45 d13a f67c e13a
00000080: 02a8 2bba a06f 6138 cc0c a3ba 3c7e 32bb
00000090: a18f 4abb 0c8e 943b ecc7 dd39 8dcb bbba
000000a0: 10e1 993b 18f4 54b9 c1cb 54bb 6894 9a3b
000000b0: a914 e43a 02a6 8b3a 58c6 d7b8 be7a 17ba
000000c0: d8ed 0fba 5495 0dbb 186e 593b 18f6 403b
000000d0: a8df 32ba 4d3a a1ba 148f 9bba e42c fc3a
000000e0: eae8 053c 76ee 233b 7fe5 04bb 5077 12ba
000000f0: e04e 82b7 b5b7 9438 f081 a1b9 54c1 903a
00000100: 00e2 4138 0b42 1eba b003 f93a 0622 f8b9
00000110: 8252 b43b b24d a13a f535 563b 525a 6abb
00000120: 54f6 35bb de5c 07bb 944e 78bb ec02 b039
00000130: 5121 153b abdd 5fbb 30bc 99b9 a45f 8a39
00000140: 5e77 92ba 5f8f b8ba 8486 d1b8 1293 19ba
00000150: 8b54 1e3a 5219 28ba 3580 0d3b d6da 88bb
00000160: 1ed3 4dba c25e 46bb c893 933b 25b7 89bb
00000170: a275 673b 193b 903b 27d9 3f39 82c0 89ba
00000180: 360e 883a d61e b43a 2061 4bbb 034c c1ba
0.0023356935 -0.00021189672 -0.0023108453 -0.0025849636 -0.00058896176 -0.0020468065 -0.0013866433 -0.0011258773
0.000120243756 -0.0020813418 -0.0007500848 -4.305411e-05 0.0030200037 -0.0043267123 0.0007831456 -0.0027654842
-0.0045308783 0.00018738104 0.003158759 -0.0021463614 0.0011879329 -0.0010384533 -0.0002668809 -0.0036233254
0.0023279218 -0.007862294 -0.0015702001 0.0044496595 -0.0034824668 -0.003552803 0.0015966182 0.0017203379
-0.00065481674 5.374814e-05 -0.0012439727 -0.0027235886 -0.0030908363 0.004533535 0.00042301358 -0.0014327631
0.004696019 -0.00020308828 -0.003247008 0.0047173984 0.0017401177 0.0010654333 -0.00010288943 -0.0005778483
-0.00054904586 -0.00216039 0.0033177193 0.0029443558 -0.00068234885 -0.00123007 -0.0011868202 0.0019239453
0.008173207 0.002501396 -0.0020278392 -0.0005587237 -1.5533937e-05 7.091408e-05 -0.00030805124 0.0011043944
4.6225265e-05 -0.0006037063 0.0018998291 -0.00047327596 0.0055029998 0.001230648 0.003268597 -0.0035759402
-0.0027765231 -0.0020654718 -0.0037888633 0.00033571513 0.0022755454 -0.0034159224 -0.00029322645 0.0002639267
-0.001117449 -0.0014080814 -9.990952e-05 -0.0005858402 0.00060398196 -0.00064124644 0.002159131 -0.004176478
-0.00078515883 -0.0030268882 0.004503701 -0.0042027407 0.0035317917 0.0044015762 0.00018296075 -0.0010509642
0.0010380212 0.00137421 -0.0031033233 -0.0014747385

layer2.weight f4 [100, 100]
00000000: f424 283e c280 b7bd 9bae 91bd 129e a83d
00000010: 02ce 37bd 3a87 16be b15e 9e3b 7161 14be
00000020: 7154 f73d 5ecb 253e d83f f03d f971 043d
00000030: 8db8 023d 6018 ec3d e9ba 8bbd d143 073e
00000040: 0a32 c33d 7cae 1b3e 9ade c1bd ec27 05be
00000050: fda6 e1bc be2e 29be 245d 22be 64a9 8dbd
00000060: c6e8 943c bca7 dbbd 586d 10be 4ed6 5e3d
00000070: 8224 3d3d ab47 653d 762b 203e 3bfd 69bd
00000080: 5448 423d 2c3a 04bd 10cd 3abd 8bc2 1abe
00000090: 91b5 0e3e 31cf 2e3d 8543 fdbd 55d0 c13d
000000a0: a227 94bd ba7f b1bd d5d8 8ebd 609b fbbd
000000b0: 01ec c73d 5a22 043e 51cc f33d a518 033e
000000c0: 4497 2dbe a322 223e e318 fe3c caaa 113e
000000d0: 82fc c33b db6e 7d3d 943a e5bd 2053 99bd
000000e0: 887f 8e3d 9d7e c3bc df9e 1c3d 0235 1d3e
000000f0: ca6f 263e 727e a1bd 0330 1abe 5c3e 08be
00000100: 44ce 1f3e 0d18 4bbd e159 fb3c d001 1bbd
00000110: b9ad c4bb 67f5 1dbe 7308 0c3e a9af 41bb
00000120: c28b 513d 010a e1bd a031 223e 877e 203e
00000130: 9511 bd3d 6500 bdbd a6ea b3bd be01 a1bd
00000140: 33bd cdbc af45 1cbd db30 1e3e de01 0a3d
00000150: e1e0 bbbd b547 f83d 6195 c53d 6496 e4bd
00000160: 651f 4d3d 0180 8fbd 0891 f8bc 539b 493c
00000170: 9def 923d 72f0 e5bd 12e5 aa3d ecc9 20bd
00000180: 66d5 40bd cd81 f3bd a0fd dbbd 5a56 12be
00000190: 4f69 0cbe a751 13be f21f d3bb e60d 03bd
000001a0: 3375 403c e0f6 2dbc 6791 223d a759 4f3c
000001b0: 1db6 0dbd d9ff 8f3d add4 56bd 656c c93c
000001c0: a3bb e4bd be40 053e 89d0 37be 5c3d 213e
000001d0: 559b 153e 5377 df3d 9783 e6bd 63f9 e7bd
000001e0: 985d 63bd b1a7 27be 06af 5c3d b861 c33c
000001f0: ddf2 26be b438 33be 2ddc 0c3d ce70 e43c
00000200: 5f65 1abe 84a7 b33d d36d 383d eac4 f7bd
00000210: 0ea8 9dbd 82f8 b03d 4755 a5bd 5682 a73d
00000220: 6f37 963d 4d2d ecbd efe2 e03d 0c26 e23d
00000230: 1b47 1dbd 3411 7cbd 8b49 033e e634 acbd
00000240: 544b 1a3d dc61 98bd 71ef eb3d e347 9c3d
00000250: c7f5 78bd 28af 1ebd a2ad de3d 480b 92bd
00000260: 9939 d83d 0a11 bb3d 2c70 d03d c2ab dabd
00000270: 2601 21be f52c c23d 7ced 10be c010 013e
00000280: 3b63 8a3a 8a39 8d3c 8765 72bd f1c2 433c
00000290: c8f2 903c d751 18be 8b97 8c3d 05ec db3d
000002a0: 7381 75bd 75de 31be dd6a 8d3d 0399 193e
000002b0: 31f1 2a3e 3e24 c63b b2fe e1bd 9eb2 04bd
000002c0: 72be 9f3d 6325 563d 065d e63c 717c 113e
000002d0: e16e 0abd cc2f 49bd cedf fbbd 4b7a 1cbe
000002e0: 7e6d 2c3d 1f10 debd 4d67 88bd 3e06 a63d
000002f0: 5999 613d dedf 9a3d 5772 a2bd f96d 85bd
00000300: 32dc 25be f550 df3d 30d6 173d 2703 0a3e
00000310: 20fa 57b9 4633 2c3d 4778 de3d 929b 9c3d
00000320: fa44 0dbe 69bd 253d ba37 a9ba 0df3 ed3d
00000330: b867 90bd 8dd6 3ebc a43e e73b d0e6 55b9
00000340: 5af6 873d c496 253e 68b1 7abc 14ff 0fbe
00000350: 2a71 1cbe 819b 2a3e 23ef c9bc fc71 073e
00000360: 0724 1fbe 60fd d93d 1f65 ac3d 31fa 4ebd
00000370: 8f27 20bd ee24 85bd de0c d23d 1650 003e
00000380: 0044 a03d 0e7a de3d 764d 0b3e e34b b83d
00000390: c9c6 c3bd 17dc 0c3d cd91 bebc 0122 01bd
000003a0: 4ba9 aabc 5b20 91bc ce7f 903c 2a32 073d
000003b0: 8ffd 1bbe 0cfe b13d 23e8 023d 221c 013e
000003c0: 43f9 673d 8e50 6dbc d392 143e 7ce1 d5bd
000003d0: 13e0 18be 6f99 b2bd aa9a 08be 57ec 2cbe
000003e0: 441a dabd a422 a43d 30e1 febd 488c 91bc
000003f0: 92b3 983d 55be d43d 6959 f93d 0854 8d39
0.16420346 -0.089601055 -0.071133815 0.082332745 -0.0448742 -0.14700022 0.0048330654 -0.14490296
0.12076653 0.1619086 0.11730927 0.032335255 0.031914283 0.11528087 -0.0682276 0.13209464
0.095310286 0.1520328 -0.09466286 -0.1300351 -0.027545447 -0.16521737 -0.15855843 -0.06917074
0.018177401 -0.10725352 -0.14104211 0.054403596 0.046177395 0.05597655 0.15641579 -0.057126265
0.04743226 -0.03228204 -0.04560572 -0.15113275 0.1393645 0.042678062 -0.12366394 0.09463564
-0.07234122 -0.0866694 -0.06974951 -0.12285495 0.09761811 0.12903729 0.11904205 0.1280237
-0.16952235 0.15833525 0.031017726 0.14225307 0.005981029 0.0618733 -0.111928135 -0.07486558
0.069579184 -0.023864085 0.03823745 0.15352252 0.16253582 -0.07885446 -0.15057378 -0.13305038
0.15606028 -0.049583483 0.030682506 -0.037843525 -0.0060021547 -0.15425645 0.13675098 -0.0029554165
0.051158674 -0.10988236 0.15839243 0.15673266 0.09231869 -0.09228591 -0.0878499 -0.078616604
-0.025114631 -0.038152393 0.15448324 0.033693187 -0.091737516 0.12123052 0.096476324 -0.11161497
0.05007877 -0.07006837 -0.030342594 0.012305099 0.07174609 -0.11227502 0.08344473 -0.039255068
-0.047078513 -0.11889992 -0.107417345 -0.14290753 -0.13712047 -0.14386617 -0.006443017 -0.031995676
0.0117466925 -0.010617942 0.039689448 0.012655652 -0.034597505 0.07031221 -0.052448917 0.02458782
-0.11168601 0.13012978 -0.17950644 0.15746063 0.14610036 0.10911431 -0.112555675 -0.113268636
-0.05550918 -0.16372563 0.053877853 0.023850307 -0.16303582 -0.175021 0.034389663 0.02788582
-0.15077733 0.087721854 0.04502661 -0.12098105 -0.076980695 0.08641149 -0.08072906 0.081791565
0.07334792 -0.11532078 0.10980784 0.11042413 -0.03839789 -0.061539844 0.12821023 -0.08408527
0.037669495 -0.0744054 0.11520279 0.07630899 -0.060781267 -0.03874126 0.108729616 -0.07131058
0.10557861 0.09134109 0.10177645 -0.106772915 -0.15723094 0.09481231 -0.14153093 0.12604046
0.0010558137 0.01723935 -0.059178855 0.011948333 0.017693892 -0.1487497 0.06864842 0.107383765
-0.059937906 -0.17370017 0.06905148 0.14999776 0.1669357 0.006046801 -0.110349074 -0.032396905
0.077999964 0.05228175 0.028120529 0.14207627 -0.03379715 -0.04911785 -0.12298547 -0.15281026
0.042096607 -0.108429186 -0.06660328 0.08106659 0.055077884 0.075622305 -0.07931965 -0.06515116
-0.16197279 0.10904113 0.0370695 0.13477765 -0.00020597177 0.042041086 0.10862785 0.0764686
-0.13795844 0.04046384 -0.0012910285 0.11618624 -0.07051033 -0.011647833 0.007057028 -0.00020399247
0.06638785 0.16170794 -0.015301086 -0.14062148 -0.15277544 0.16660883 -0.024650162 0.13227075
-0.15541087 0.106440306 0.08417725 -0.05053157 -0.039100226 -0.065011844 0.102563605 0.1253055
0.0782547 0.10863124 0.13603768 0.08998849 -0.095594 0.03438958 -0.023262883 -0.03152657
-0.020832678 -0.017715624 0.017639067 0.033006825 -0.15233444 0.08691034 0.031959664 0.12608388
0.0566342 -0.014484538 0.14509134 -0.10443398 -0.14929228 -0.087206714 -0.1334025 -0.16887031
-0.10649541 0.0801442 -0.12445295 -0.017767087 0.07456125 0.103878655 0.12175257 0.00026956224

layer2.bias f4 [100]
00000000: 0a8e faba 671f e4ba d082 7038 b641 d5ba
00000010: fe58 1bba 1085 5c3b d089 8238 7a35 ecba
00000020: d49b 83ba 43c8 f13a b936 fbba a0e6 1dba
00000030: 6804 3cbb 99ae 253b 392b e1ba c05e c53a
00000040: 3b77 003b 204b a6b9 fed0 94b9 efff 87ba
00000050: 9d48 46ba 20b1 e73a 9e0d 45ba 9c02 043b
00000060: e0b5 3f39 8f0e 1bbb 0526 5d3b 6c46 063a
00000070: 968e 13ba c07b f7b9 f1bc d4ba d4e4 abba
00000080: 14b9 d3b9 ac38 50ba 1e10 0dbb 7225 b03b
00000090: 1d0e ce3b 4c22 1f3b 1437 3b3b 7d39 eeba
000000a0: 4c7d 8f39 9d00 1e3b b4f8 a23b ae84 1d3a
000000b0: 1a45 91ba 726d 86ba f0b5 123c 1236 89bb
000000c0: 6dae 943b 13ee cf3a acb2 e539 d7f0 e2ba
000000d0: 20f1 9038 2b86 6b3b 3d1b 5dbb eb31 a93a
000000e0: 50e3 ddbb c830 ae3b 20ad 6fb8 b088 a3ba
000000f0: 4be3 8d3b f2a8 afba 1976 203b 8005 af37
00000100: 216d 06bb b8fa f5b8 f07c 4bba 0a0c cf3b
00000110: 0e4f 90ba 81ba 6fba d869 31bb 6a7e d83a
00000120: 3455 a83b e23c 3e3b 7eee 7e3b b39a 483b
00000130: 8c01 5a3b 3f28 33bb 083a 883a e1ce e63a
00000140: a659 80b9 ba00 47ba 34c8 0fbb d076 17b8
00000150: 2c7c 883b 06f0 eeb9 5ea0 863b 99ec 38bb
00000160: 1846 0d3b 01cc 433b 9861 173b ae7e 2abb
00000170: 98bb e93a 27d3 95ba 3d6c e2bb 6eea ad39
00000180: 63e0 1bbb a873 853b 8231 da39 e103 30bb
-0.0019115817 -0.0017404378 5.7342288e-05 -0.0016270194 -0.00059260416 0.0033648647 6.2245526e-05 -0.0018021308
-0.0010040947 0.0018446523 -0.0019166089 -0.00060234405 -0.002868915 0.002528107 -0.0017179019 0.0015058145
0.0019602317 -0.0003171796 -0.0002838447 -0.0010375957 -0.0007563921 0.0017676689 -0.0007516983 0.0020143157
0.00018282933 -0.00236598 0.0033744585 0.0005122188 -0.0005628852 -0.00047203712 -0.0016230625 -0.0013114461
-0.0004038295 -0.0007943015 -0.00215245 0.0053755576 0.0062883035 0.0024281917 0.0028566765 -0.0018175092
0.0002736844 0.0024109252 0.0049734954 0.00060088455 -0.0011083216 -0.0010256006 0.00895451 -0.004187354
0.0045373947 0.0015863798 0.00043811405 -0.0017314208 6.911368e-05 0.0035938125 -0.003373816 0.0012908553
-0.0067714825 0.005315874 -5.7143276e-05 -0.0012476649 0.004330074 -0.001340179 0.0024484454 2.0864187e-05
-0.0020511823 -0.000117292104 -0.00077624526 0.006318574 -0.0011009888 -0.0009144918 -0.0027071144 0.0016517167
0.00513711 0.0029027988 0.0038899477 0.0030609786 0.0033265082 -0.002733722 0.0010393271 0.0017609262
-0.00024480856 -0.0007591356 -0.0021939399 -3.611186e-05 0.004165193 -0.0004557373 0.0041084727 -0.0028217195
0.0021556672 0.0029876234 0.0023098942 -0.0026015448 0.0017832397 -0.0011430726 -0.0069098757 0.00033171795
-0.0023784868 0.004072625 0.00041617086 -0.002685778

mu.weight f4 [6, 100]
00000000: c04e 193e fe36 d13d 40f9 823b 8990 c53d
00000010: a4bb d5bd 3685 5c3e 1c70 983d 7867 cbbd
00000020: 9804 1bbe e77e 243e dcc0 623c 92ef 773e
00000030: da87 5dbe fa10 20bd 39c2 66be ec19 5a3e
00000040: 9e25 bdbd 0801 5f3e 961e 0a3e 8cc3 51bc
00000050: b92e 8f3d db77 e63d 7e4e 613e b1a7 653e
00000060: 3e53 09be 9c4f 46be b436 373e 9561 d0bd
00000070: f259 ca3c 1d00 95bd 4e4d 243c 9f58 1cbd
00000080: eaf9 463e 0817 013c bcca 7c3d d7c5 533e
00000090: 5e3f 343e a535 9b3d 1cbb b6bd 82c3 28bd
000000a0: 1d71 b13c 2d20 6bbe 7453 65be 015b 49be
000000b0: c2a4 423d 6ea3 05be f071 813d e9ba 1fbe
000000c0: e117 03be 2264 623e 478e 20be 0b6f b53d
000000d0: 1745 1c3d 7ddb 7d3d 18e0 113e 3d8b f9bd
000000e0: 3e80 55be e045 273c b44a 36be 5cb1 2ebc
000000f0: e1aa 323e 4489 0bbe c9bb 33be 8fa4 9c3c
00000100: 9d8f 57bd 786f 3f3c 5c42 7fbd 49f5 3e3e
00000110: 7cc1 28be f8b6 003e 9ee6 51be 5f9a 963d
00000120: 6993 443e 82bd 0c3d d4b2 c33a b741 2dbd
00000130: f4a9 623e b361 09be 000c 5ebe 20d1 52be
00000140: 3615 21be f881 1ebe dc33 f5bd 457c 9c3d
00000150: 1776 a93d 7d73 523d 8075 71be 6090 2abe
00000160: afad 083e 115d 173e 7287 75be d512 a13c
00000170: 61ec 17bd 442b 713c 782c 4bbd 0596 42be
00000180: 9e3a e2bd f9c9 263e bfaf 043e 2dc4 283e
00000190: 0dac 89bd 9822 a93a a969 0bbe 6adb 1e3e
000001a0: ef84 29bd e2d8 32bb e66c 2e3e b53e 28be
000001b0: 1846 2f3d b72a 603e c94e ce3b 49de bebd
000001c0: efb4 a23d a47c 27be 83d8 98bb 1bff 33bb
000001d0: 2f56 59be b143 803e 2f01 cebd 9c70 513e
000001e0: ed93 1dbd e48f c43d 0622 60bd d016 33bb
000001f0: c837 3fbc 4c9f 0ebe 0fee 493e d2e6 52bc
00000200: 7600 f0bd 7948 ec3d 9675 94bc 278a 93bd
00000210: 924e e03d 2e4c 0c3e 4a50 a53d 5444 8dbd
00000220: 2945 c33d f3d3 953d 4a7b 073e 97c4 60bd
00000230: dc3a 74bd dd1c 94bc c353 883b f3a4 243c
00000240: 8002 0a3e 6a1f e03d 0903 0bbe a5e3 49be
00000250: cda2 d5bd 8cbd b8bb 93ff 953d 2cd8 ecbc
00000260: 0140 8c3d 4d62 2c3e 7b71 5f3e 8450 0cbe
00000270: 13b5 1abd f66a 84bd d8f8 32bc abef 373e
00000280: aa98 42bd 2440 ab3d 3193 6e3e 31fd 9abc
00000290: f557 0ebe d44d 00be 1ed7 523c 1d25 e03d
000002a0: 9e21 16be 2ffe 4b3d 3351 d4bd d455 b93d
000002b0: 8560 edbd 2d9d d6bd 2b80 3c3d 105c 5a3d
000002c0: a6cc 04bd 883f 093b dc14 1d3e b277 553e
000002d0: e214 e9bd 5c0d ae3d 4ac5 23bd d0e2 473e
000002e0: 0e28 053d 28d5 953c 7bcf e13d 7496 67bd
000002f0: 4df4 0dbe 1a1f 623e 71fb 023d 6b90 e9bd
00000300: d3f9 3dbe 3674 4d3e 5d40 f63d 4a33 383d
00000310: 4f0b 033e 7d3e aa3c 536a 4e3e e5ea 1e3e
00000320: fa40 7fbd 3643 8ebc d610 42be b0b7 2ebe
00000330: e928 19be bf27 833d f147 d03d a4e0 5fbe
00000340: 07be 6dbe 7895 f5bc 3f2d 36be d861 28be
00000350: eacd df3d 4a39 8b3d e560 39be ad1e 4dbe
00000360: 074b 4b3e eac2 6f3e 6674 1abd 0272 28be
00000370: 22b5 593e a653 873b 5150 343e 8fa8 94bd
00000380: 8742 0bbe 7a78 63bd 07e9 593e 8719 2f3e
00000390: dd03 2e3e f4f0 10be 5ec4 113e 3c87 763e
000003a0: 5e47 4f3e 438d 403e 0b2d 5bbe cc32 1d3e
000003b0: c6a8 26be 1051 1ebe 4a55 003e decd 3c3d
000003c0: 5636 a93d cd2b cc3d c1ff 683c 5b7a e3bd
000003d0: 66a9 ffbd e28d 313e 821f b4bd 6e1e dbbd
000003e0: fbca b9bd b01e 423e 78af 31bd d8dd febd
000003f0: 294a d2bd c49f a43d 1fa2 29be 7dc7 c03d
0.14971447 0.10215567 0.003996998 0.096467085 -0.1043618 0.21535191 0.07443258 -0.099318445
-0.15138471 0.16064034 0.013839927 0.24212483 -0.21633855 -0.03907869 -0.22535028 0.21298951
-0.092356905 0.21777737 0.1348823 -0.01280297 0.069913335 0.11253329 0.22002599 0.2242725
-0.1341066 -0.19366306 0.17891961 -0.10174862 0.024701092 -0.07275412 0.0100281965 -0.038170453
0.19431272 0.007879026 0.06171678 0.20680939 0.17602298 0.07578591 -0.08922407 -0.041202076
0.021660382 -0.22961493 -0.22395116 -0.19663621 0.047520407 -0.13050625 0.0632056 -0.15598644
-0.12802078 0.2210851 -0.15679274 0.088590704 0.038151827 0.0619769 0.14245641 -0.12184761
-0.20849702 0.010209531 -0.17801934 -0.010662403 0.17447998 -0.13626581 -0.17552103 0.019121436
-0.052627195 0.011684291 -0.062319145 0.18648256 -0.16480058 0.12569797 -0.2049813 0.07353663
0.19196858 0.034360416 0.0014930614 -0.042299 0.22135144 -0.13416176 -0.21684265 -0.20587587
-0.15730748 -0.15479267 -0.11972782 0.0764089 0.08274477 0.05137967 -0.23579979 -0.16656637
0.13347505 0.14781596 -0.2397745 0.0196623 -0.037090663 0.014719788 -0.049602956 -0.1900254
-0.110463366 0.16287984 0.12957667 0.16481085 -0.06722269 0.0012903986 -0.13614525 0.15513387
-0.04138654 -0.0027289917 0.17033729 -0.16430171 0.042791456 0.21891294 0.006296013 -0.09319741
0.079446666 -0.1635614 -0.004664482 -0.0027465287 -0.21224283 0.25051644 -0.100588195 0.20453113
-0.03847115 0.095977575 -0.054719947 -0.002732683 -0.011671014 -0.13927954 0.19719718 -0.012872415
-0.11718838 0.115372606 -0.018122476 -0.07204085 0.10952486 0.13700935 0.080719545 -0.06897798
0.09534676 0.07315817 0.13230625 -0.054874983 -0.059626445 -0.01808017 0.004160376 0.010049093
0.13477516 0.10943492 -0.13575377 -0.19715746 -0.104314424 -0.00563783 0.073241375 -0.028911673
0.06848145 0.16834374 0.21820633 -0.1370259 -0.037770342 -0.06465714 -0.010923587 0.1796252
-0.047508873 0.08361843 0.23298337 -0.01891956 -0.1390074 -0.12529689 0.012868671 0.10944579
-0.14661261 0.049802955 -0.1036705 0.090495735 -0.11590675 -0.10479198 0.046020668 0.053310454
-0.03242173 0.0020942409 0.15339988 0.20846441 -0.11380936 0.08498642 -0.03998307 0.19520116
0.032508902 0.018290117 0.11025902 -0.056539968 -0.13862725 0.22082177 0.031978074 -0.11404499
-0.18552332 0.20063862 0.12023995 0.044970788 0.12797283 0.02078175 0.20157747 0.15519293
-0.062317826 -0.017366033 -0.18951735 -0.17062259 -0.14957012 0.06404065 0.10169972 -0.21863037
-0.23217021 -0.029978499 -0.17790698 -0.16443574 0.10927947 0.067980364 -0.18103369 -0.20031233
0.1985284 0.23414198 -0.037708662 -0.1644974 0.21260503 0.0041298447 0.17608763 -0.072587125
-0.13599597 -0.055534817 0.21280299 0.17099582 0.16993661 -0.14154416 0.14235064 0.24075025
0.20242068 0.18803887 -0.21403901 0.15351409 -0.1627532 -0.1546061 0.12532535 0.046094768
0.08262317 0.09969292 0.014221133 -0.11107322 -0.12483482 0.1733928 -0.08795072 -0.106991634
-0.090719186 0.18957019 -0.04338023 -0.12444657 -0.10268051 0.080382854 -0.1656575 0.09413049

mu.bias f4 [6]
00000000: 08d4 583c e4bd d23a a09f e83b 4c0c ebbb
00000010: 769f ae3a 7ec0 8bbb
0.013234146 0.001607832 0.007099107 -0.0071730968 0.001332267 -0.00426489
