pytorch-maml-rl/saves/maml-halfcheetah-dir/policy-1.pt (torch_old, 52201 bytes, 7 tensors)

sigma f4 [6]
0.0037292608 -0.025347058 0.023125336 -0.061466213 -0.006594984 0.03766226
00000000: 9d66 743b a2a4 cfbc 5871 bd3c ffc3 7bbd
00000010: bc1a d8bb be43 1a3d

layer1.weight f4 [100, 20]
-0.20486777 0.18419439 0.03292547 0.09719437 -0.05951801 -0.19408941 -0.040022157 -0.17828473
-0.10485318 0.048411943 0.21008103 0.009112786 0.08299992 0.17484775 0.04526361 0.042516164
-0.16043834 0.09318899 -0.1689933 -0.15746707 0.08205183 -0.07025595 -0.17706329 -0.11870742
-0.03494681 0.17483169 0.22041789 0.11400232 -0.07342809 0.14923052 0.09378958 0.06798528
-0.2023336 0.13938808 0.058964543 -0.2216906 -0.15959549 0.011315167 0.026474237 -0.04529359
0.11457131 -0.06424919 0.0031870343 -0.014746538 0.21442516 0.173181 -0.09642911 -0.025056178
0.10491492 0.14507999 0.0067707654 -0.045874868 0.04170868 -0.032066315 0.107822716 -0.16186129
0.1143596 0.16076976 -0.20445669 0.03926791 -0.070392706 0.10105881 0.15985525 0.21630488
0.00037756958 -0.14044723 -0.19691473 -0.15189987 0.041587472 -0.017001968 0.22581272 -0.19448477
0.17635116 0.16096711 0.07706898 -0.107919894 -0.121649206 0.08122299 -0.083216 -0.140333
-0.16193618 0.013799418 0.20603837 -0.2227271 0.081753954 0.10515938 0.20277524 0.09033518
-0.04030915 -0.076708004 -0.013620388 -0.20562579 0.010046031 -0.0383627 -0.20079528 -0.10534114
-0.16514093 0.20549999 -0.21930756 0.069106095 -0.113016896 0.16470854 0.09572493 -0.13865103
-0.21383333 -0.10919385 0.14196107 -0.030039884 0.18747666 -0.2167878 -0.110461645 0.050541107
-0.043500334 0.02781146 0.012309448 0.08851858 -0.065566 0.10571897 -0.17596084 0.12522988
-0.041447256 0.19753699 0.108908676 0.020813629 -0.032180574 -0.120836794 0.17158495 0.10926304
-0.11003513 -0.13522096 0.09116198 0.10601279 0.006691226 -0.089984044 0.0895934 -0.17902021
0.13027468 0.21397522 0.1506572 -0.007270987 -0.053483095 -0.21973526 -0.018757772 -0.10323328
-0.19365327 -0.07486635 0.18567953 -0.19457488 -0.1993321 -0.12028099 0.07769928 -0.036904052
-0.16926265 0.18827026 -0.16111356 0.22754708 -0.18932648 0.1378858 0.13192242 -0.10043192
0.19721784 0.10574434 -0.0043671485 0.0027616806 0.061070655 -0.048388805 -0.20742056 -0.1007781
-0.2177082 0.005211294 -0.0020322688 -0.18714204 0.070380405 -0.1463796 -0.14896102 -0.062311955
0.046658807 -0.054109175 0.15147021 -0.060000725 -0.07385141 -0.21849479 0.05404165 -0.19499443
-0.20415668 -0.11056312 -0.046585727 -0.09933502 -0.13445951 -0.09341893 -0.20909967 -0.118482694
0.0366049 -0.064344205 -0.12905546 0.1705849 0.20459308 -0.03177914 0.0049754977 0.015766198
-0.20456828 0.012277683 -0.18675235 -0.06145625 0.019331058 0.03014484 -0.077459425 0.110924
-0.095745616 0.08471196 0.06687471 -0.117086865 -0.22897534 0.10445602 -0.10464384 0.15097946
-0.17670625 -0.017812135 -0.19132888 -0.15943576 -0.08205885 -0.07325404 -0.101965785 0.18267924
-0.05867467 0.15816288 0.12903182 -0.19923308 0.08729775 0.15382317 0.14840326 -0.14976102
-0.07382784 -0.066951595 -0.1753658 -0.039082523 0.12961389 -0.068881035 0.07483134 0.14532661
-0.16420491 0.08541347 -0.13450234 0.18965937 -0.12494011 0.12425471 0.19593881 0.21322227
0.21307682 -0.08361881 -0.07973231 0.12604792 0.008442473 0.21950524 -0.034742184 0.08344565
00000000: dbc8 51be 749d 3c3e dcdc 063d d80d c73d
00000010: 28c9 73bd 60bf 46be 46ee 23bd 4690 36be
00000020: 44bd d6bd 9a4b 463d 7b1f 573e cb4d 153c
00000030: ddfb a93d 4a0b 333e 5666 393d 6e25 2e3d
00000040: f349 24be dfd9 be3d 940c 2dbe 0c3f 21be
00000050: ca0a a83d 5ae2 8fbd 1450 35be e01c f3bd
00000060: 6324 0fbd 1407 333e 3ab5 613e 0c7a e93d
00000070: 7761 96bd e3cf 183e c014 c03d de3b 8b3d
00000080: 8a30 4fbe c0bb 0e3e ce84 713d dc02 63be
00000090: 006d 23be 4063 393c 80e0 d83c c585 39bd
000000a0: 5da4 ea3d 1495 83bd 90dd 503b 779b 71bc
000000b0: 4592 5b3e 5c56 313e a07c c5bd 9d42 cdbc
000000c0: a2dd d63d d98f 143e 4cdd dd3b 49e7 3bbd
000000d0: b9d6 2a3d f857 03bd 28d2 dc3d f7be 25be
000000e0: 5e35 ea3d d4a0 243e 185d 51be 63d7 203d
000000f0: 0d2a 90bd ecf7 ce3d 18b1 233e 077f 5d3e
00000100: 88f4 c539 66d1 0fbe 04a4 49be a48b 1bbe
00000110: a057 2a3d b647 8bbc 733b 673e 0427 47be
00000120: 6695 343e 90d4 243e 57d6 9d3d 1b05 ddbd
00000130: 3823 f9bd 3d58 a63d 266d aabd 74b3 0fbe
00000140: 99d2 25be f416 623c b9fb 523e 9312 64be
00000150: 9e6e a73d cd5d d73d 50a4 4f3e a701 b93d
00000160: 351b 25bd 1619 9dbd 0c28 5fbc 918f 52be
00000170: 1c98 243c 3522 1dbd 479d 4dbe 18bd d7bd
00000180: b41a 29be 976e 523e 2992 60be 7f87 8d3d
00000190: 6775 e7bd 5ba9 283e 6f0b c43d 89fa 0dbe
000001a0: 20f7 5abe 06a1 dfbd 3e5e 113e 3416 f6bc
000001b0: e2f9 3f3e 9ffd 5dbe b739 e2bd 3104 4f3d
000001c0: 682d 32bd dcd4 e33c 91ad 493c 3b49 b53d
000001d0: 7847 86bd 3083 d83d 142f 34be 433c 003e
000001e0: 99c4 29bd 2347 4a3e 830b df3d 5881 aa3c
000001f0: c7cf 03bd 4879 f7bd f7b3 2f3e 4dc5 df3d
00000200: 195a e1bd 5d77 0abe 22b3 ba3d 3c1d d93d
00000210: 1242 db3b 8e49 b8bd bf7c b73d 1351 37be
00000220: ba66 053e 521c 5b3e e245 1a3e 7641 eebb
00000230: 1711 5bbd 4802 61be e6a9 99bc f86b d3bd
00000240: 0b4d 46be 8753 99bd c622 3e3e a33e 47be
00000250: b71d 4cbe e155 f6bd cd20 9f3d b428 17bd
00000260: 3053 2dbe ebc9 403e f4fa 24be 1a02 693e
00000270: cdde 41be ef31 0d3e ac16 073e 40af cdbd
00000280: 79f3 493e 7d90 d83d 4c1a 8fbb 50fd 343b
00000290: 3925 7a3d 5733 46bd 0e66 54be c064 cebd
000002a0: e6ee 5ebe 81c3 aa3b d02f 05bb 2aa2 3fbe
000002b0: 9a23 903d 89e4 15be 3d89 18be d23a 7fbd
000002c0: 4e1d 3f3d 95a1 5dbd 021b 1b3e 52c3 75bd
000002d0: 683f 97bd 19bd 5fbe c75a 5d3d 9fac 47be
000002e0: 730e 51be eb6e e2bd add0 3ebd 2970 cbbd
000002f0: c1af 09be 6d52 bfbd 391e 56be 0ea7 f2bd
00000300: 05ef 153d e5c6 83bd 1d27 04be cfad 2e3e
00000310: d980 513e d82a 02bd 8009 a33b 1d28 813c
00000320: 597a 51be 5628 493c 023c 3fbe 8cb9 7bbd
00000330: 2b5c 9e3c 50f2 f63c 0ca3 9ebd 1f2c e33d
00000340: 4716 c4bd 777d ad3d 9cf5 883d 3dcb efbd
00000350: 8378 6abe 0aed d53d 824f d6bd 5c9a 1a3e
00000360: 7cf2 34be c1ea 91bc b8eb 43be 2143 23be
00000370: 780e a8bd 3706 96bd 70d3 d0bd 4410 3b3e
00000380: da54 70bd 73f5 213e eb20 043e c203 4cbe
00000390: 2ac9 b23d d283 1d3e 06f7 173e f45a 19be
000003a0: 0d33 97bd eb1d 89bd 1893 33be ff14 20bd
000003b0: 81b9 043e 8011 8dbd 2c41 993d 80d0 143e
000003c0: 5525 28be 42ed ae3d fbba 09be 1136 423e
000003d0: 9ae0 ffbd 4179 fe3d 2fa4 483e f056 5a3e
000003e0: cf30 5a3e 5740 abbd b14a a3bd b512 013e
000003f0: 4c52 0a3c fbc5 603e d24d 0ebd 8ee5 aa3d

layer1.bias f4 [100]
0.0036332842 0.0015037601 -0.00032899895 -0.0012791057 0.00010154286 -0.00067430886 -0.002993946 -0.0016093233
0.00064748444 -0.0009497657 0.00045606904 0.0019587083 0.0041943304 -0.0021304814 0.0016034768 9.956337e-05
-0.0017735596 0.00014795421 0.002449025 0.0007929655 0.0006029777 0.0008994199 0.00020386092 -0.0010990995
-0.0005861507 -0.002124573 -0.0013688579 0.0005531543 -0.0030458807 -0.0023678672 0.00027359056 0.00012964103
0.0017262683 0.00025018014 -0.0027073657 -0.0031778107 -0.0024364586 0.00062670244 -7.5668795e-05 9.640207e-07
0.0025259815 0.000686415 -0.0008916527 0.0025953331 0.0015001532 0.00058836024 -0.00070017995 -0.0005633865
-2.5333604e-05 -0.0017024216 0.0026227126 -0.00019518251 0.00016464465 0.00063333014 -0.0029185754 -9.1816066e-05
0.002884108 0.00085158757 -0.002199763 0.0002496997 -0.00019149482 0.00034891046 -0.0016587407 -0.00047143348
-0.0002512578 -0.0018047035 0.0013341228 0.00020720606 0.0001603635 0.001328484 0.0005360205 -0.0017789812
-0.002205868 0.0010698105 -0.0016655753 -0.00011392022 1.2501929e-05 -0.0015440187 -0.0035123955 -0.0015472395
-0.0021695937 -0.0015140602 -0.0015492574 0.002012532 0.00092123915 -0.00038023817 0.00028267023 -0.0038902024
-0.0010334749 0.00027358485 0.0026309714 -0.0038813069 0.0027817315 0.0020230026 0.00018942426 -0.0010749669
-0.0023004743 0.0010859582 -0.0003230408 0.0002217333
00000000: 651c 6e3b d119 c53a 7e7d acb9 aaa7 a7ba
00000010: 68f3 d438 1ac4 30ba 1436 44bb eeef d2ba
00000020: f2bb 293a b2f9 78ba 8d1c ef39 ac5d 003b
00000030: 9870 893b 8c9f 0bbb c12b d23a adcc d038
00000040: c976 e8ba 2824 1b39 d27f 203b 04df 4f3a
00000050: 2611 1e3a 0cc7 6b3a 80c3 5539 a90f 90ba
00000060: e8a7 19ba 6c3c 0bbb 406b b3ba 8f01 113a
00000070: 669d 47bb 382e 1bbb b470 8f39 40f0 0739
00000080: f443 e23a 9c2a 8339 0f6e 31bb d142 50bb
00000090: feac 1fbb 4a49 243a 60b0 9eb8 8063 8135
000000a0: f08a 253b 88f0 333a cdbd 69ba 7716 2a3b
000000b0: caa0 c43a 303c 1a3a 488c 37ba 3ab0 13ba
000000c0: 8083 d4b7 ca23 dfba d1e1 2b3b e8a9 4cb9
000000d0: 76a4 2c39 1106 263a 9245 3fbb 608d c0b8
000000e0: 4e03 3d3b 133d 5f3a e629 10bb 20ea 8239
000000f0: 00cc 48b9 f8ed b639 1a6a d9ba bb2a f7b9
00000100: 40bb 83b9 cd8b ecba bcdd ae3a 7445 5939
00000110: 4027 2839 8720 ae3a ba83 0c3a b42c e9ba
00000120: 5390 10bb e238 8c3a 6f4f daba 74e8 eeb8
00000130: 60bf 5137 ac60 caba 3830 66bb becc caba
00000140: be2f 0ebb 6e73 c6ba 7410 cbba afe4 033b
00000150: 507f 713a b45a c7b9 5b33 9439 c4f2 7ebb
00000160: aa75 87ba f06f 8f39 606c 2c3b 865d 7ebb
00000170: b64d 363b 5a94 043b 30a0 4639 e7e5 8cba
00000180: 8ec3 16bb b656 8e3a cd5d a9b9 1481 6839

layer2.weight f4 [100, 100]
0.16415659 -0.090833925 -0.07472728 0.07380254 -0.04896561 -0.14579378 -0.0002478538 -0.140336
0.11804908 0.16300568 0.120427646 0.03210115 0.034138914 0.11822962 -0.07112933 0.12839936
0.09500645 0.14548327 -0.09579307 -0.12722504 -0.030049909 -0.1600352 -0.15661432 -0.0705071
0.018757649 -0.1123108 -0.14565636 0.05373471 0.04687043 0.056312285 0.15430136 -0.060918987
0.046218447 -0.03360753 -0.04622951 -0.15189438 0.1370474 0.045362145 -0.12474367 0.09462377
-0.08060451 -0.0896126 -0.07889689 -0.12944007 0.09862379 0.12703343 0.12134741 0.12297442
-0.17070882 0.16111033 0.030789895 0.14528218 0.008903462 0.060458064 -0.109363124 -0.082952395
0.07020638 -0.031248214 0.03654069 0.15540324 0.15971202 -0.07819505 -0.15169376 -0.13219826
0.15855356 -0.055143215 0.033437613 -0.042393 -0.007963016 -0.15388432 0.13633788 -0.001588969
0.051307596 -0.109202504 0.15187298 0.15347521 0.088038154 -0.09193673 -0.09341223 -0.08032293
-0.022922521 -0.04216463 0.14711697 0.03467761 -0.09469558 0.119296215 0.096644744 -0.1092032
0.05157861 -0.071059935 -0.029108707 0.012338584 0.07106129 -0.118682586 0.08539855 -0.042403787
-0.05378188 -0.124964945 -0.10809688 -0.14205493 -0.14161724 -0.14480248 -0.0029477766 -0.034117848
0.020075873 -0.009948646 0.047276307 0.011980467 -0.027897844 0.06808327 -0.05297156 0.02831041
-0.11200167 0.12950392 -0.17579551 0.16144575 0.14784622 0.1071959 -0.109930255 -0.10630297
-0.052486863 -0.16702947 0.0545176 0.025058713 -0.15810077 -0.16916695 0.042300086 0.025225755
-0.14663105 0.08551987 0.05651544 -0.110853136 -0.07980318 0.08737927 -0.07976542 0.08526532
0.08063459 -0.11503738 0.111297496 0.10802383 -0.030236617 -0.05567334 0.13512646 -0.07682806
0.04097081 -0.0668059 0.11458163 0.074090526 -0.05935714 -0.040019963 0.10508907 -0.06799725
0.103359535 0.09664439 0.103615 -0.10351456 -0.1567738 0.09578018 -0.14705794 0.13125627
0.0004271604 0.020199731 -0.060547456 0.01692086 0.019548573 -0.14957103 0.06940924 0.11388668
-0.05991164 -0.17237127 0.069104016 0.15423158 0.17158255 0.005793713 -0.11615209 -0.03378347
0.07939433 0.05061878 0.031274106 0.14511466 -0.03639061 -0.052391957 -0.123238906 -0.14882432
0.046465863 -0.09948977 -0.06845339 0.08127937 0.05572286 0.0776568 -0.07724047 -0.06405143
-0.16273664 0.11245681 0.038022473 0.13722327 -0.0033512414 0.04370876 0.11042166 0.07494048
-0.13736461 0.042518094 -0.00073021726 0.11513652 -0.0676036 -0.013476685 0.0075091748 -0.0027828745
0.06547738 0.16360532 -0.018352617 -0.1423495 -0.15537457 0.16332763 -0.024536371 0.13948138
-0.15441734 0.10851472 0.08337744 -0.05147977 -0.0400074 -0.06934992 0.10257945 0.12432898
0.08014468 0.113056965 0.132094 0.08596631 -0.09569074 0.029160386 -0.020335628 -0.032654915
-0.021575002 -0.014242525 0.019729463 0.029269949 -0.15042992 0.08887587 0.032455787 0.12553614
0.05373827 -0.009071119 0.14548708 -0.10166929 -0.14943047 -0.08512578 -0.13781896 -0.16362414
-0.10150621 0.08428449 -0.123495646 -0.019835344 0.07492281 0.10499743 0.12293458 0.0014626144
00000000: aa18 283e 2307 babd 9e0a 99bd c925 973d
00000010: 2a90 48bd f74a 15be 60f2 81b9 3eb4 0fbe
00000020: b7c3 f13d f6ea 263e c5a2 f63d 7f7c 033d
00000030: 3fd5 0b3d 5f22 f23d 41ac 91bd 1f7b 033e
00000040: be92 c23d 91f9 143e 282f c4bd 4847 02be
00000050: 3a2b f6bc 44e0 23be 815f 20be 0766 90bd
00000060: a4a9 993c 3403 e6bd f126 15be ed18 5c3d
00000070: 35fb 3f3d b6a7 663d 2d01 1e3e 3086 79bd
00000080: 8e4f 3d3d 0da8 09bd 285b 3dbd 338a 1bbe
00000090: 2756 0c3e a8cd 393d 9c79 ffbd 1bca c13d
000000a0: fa13 a5bd d086 b7bd b194 a1bd f08b 04be
000000b0: 45fb c93d 0d15 023e fe84 f83d 03da fb3d
000000c0: 4bce 2ebe 1bfa 243e 173b fc3c dac4 143e
000000d0: d4df 113c e0a2 773d c6f9 dfbd f2e2 a9bd
000000e0: 5dc8 8f3d 41fc ffbc b1ab 153d 0722 1f3e
000000f0: 8c8b 233e ba24 a0bd 9c55 1bbe fb5e 07be
00000100: dd5b 223e dadd 61bd e1f5 083d 48a4 2dbd
00000110: 4f77 02bc da93 1dbe 289c 0b3e f444 d0ba
00000120: ea27 523d 90a5 dfbd 9784 1b3e 9b28 1d3e
00000130: 594d b43d 5349 bcbd e94e bfbd 5980 a4bd
00000140: 03c8 bbbc d2b4 2cbd d5a5 163e 1c0a 0e3d
00000150: c2ef c1bd 9351 f43d aeed c53d eda5 dfbd
00000160: 1844 533d df87 91bd 6275 eebc c627 4a3c
00000170: 9588 913d db0f f3bd 6fe5 ae3d 98af 2dbd
00000180: 634a 5cbd 9fed ffbd e661 ddbd d976 11be
00000190: 1c04 11be 1a47 14be 7c2f 41bb 28bf 0bbd
000001a0: 2876 a43c a5ff 22bc cda4 413d b849 443c
000001b0: 058a e4bc 3e6f 8b3d b5f8 58bd 3ceb e73c
000001c0: 2261 e5bd ad9c 043e bd03 34be 0952 253e
000001d0: 0065 173e 8689 db3d 1d23 e1bd 5fb5 d9bd
000001e0: 77fc 56bd c609 2bbe d94d 5f3d ee47 cd3c
000001f0: 2be5 21be 1a3a 2dbe db42 2d3d 3ea6 ce3c
00000200: 7326 16be 0b25 af3d bc7c 673d f806 e3bd
00000210: da6f a3bd e7f3 b23d 0d5c a3bd 969f ae3d
00000220: bf23 a53d b898 ebbd f1ef e33d 993b dd3d
00000230: c8b2 f7bc ba09 64bd 975e 0a3e 0858 9dbd
00000240: 02d1 273d 88d1 88bd c6a9 ea3d c6bc 973d
00000250: 7920 73bd f9eb 23bd f038 d73d 2442 8bbd
00000260: 2aae d33d 7eed c53d 1a34 d43d 71ff d3bd
00000270: 5089 20be 6628 c43d 5b96 16be 0b68 063e
00000280: 80f4 df39 e879 a53c 9c00 78bd 9e9d 8a3c
00000290: 5424 a03c 2629 19be 6e26 8e3d 6b3d e93d
000002a0: e865 75bd 1882 30be 6886 8d3d e2ee 1d3e
000002b0: 56b3 2f3e 30d9 bd3b 26e1 edbd 8960 0abd
000002c0: 7f99 a23d a355 4f3d 4719 003d f098 143e
000002d0: 520e 15bd f398 56bd ae64 fcbd 6765 18be
000002e0: fd52 3e3d 4bc1 cbbd 4a31 8cbd cc75 a63d
000002f0: a73d 643d 870a 9f3d 4030 9ebd 652d 83bd
00000300: 6fa4 26be c24f e63d 74bd 1b3d 4284 0c3e
00000310: 80a0 5bbb f507 333d c024 e23d 657a 993d
00000320: 4fa9 0cbe 7427 2e3d 0d6c 3fba b2cc eb3d
00000330: c273 8abd 50cd 5cbc 860f f63b e360 36bb
00000340: 0119 863d 2788 273e 3a58 96bc 11c4 11be
00000350: 831a 1fbe 5c3f 273e 8000 c9bc 35d4 0e3e
00000360: 941f 1ebe f73c de3d cbc1 aa3d 74dc 52bd
00000370: cdde 23bd 5507 8ebd 2d15 d23d 31a0 fe3d
00000380: e522 a43d 698a e73d a643 073e 1b0f b03d
00000390: 82f9 c3bd c3e1 ee3c e796 a6bc 29c1 05bd
000003a0: 0fbe b0bc 7b59 69bc af9f a13c 88c7 ef3c
000003b0: 4d0a 1abe 8d04 b63d 5cf0 043d 8c8c 003e
000003c0: a91c 5c3d 089f 14bc 91fa 143e fd37 d0bd
000003d0: 4d04 19be 6d56 aebd 6a20 0dbe 168d 27be
000003e0: 7de2 cfbd 599d ac3d 49eb fcbd bb7d a2bc
000003f0: 2171 993d e508 d73d 20c5 fb3d 32b5 bf3a

layer2.bias f4 [100]
-0.0026238258 -0.0010225788 -0.00053001015 -0.001806292 -0.001265729 0.00057830336 -0.00023024829 -0.0007664176
7.3099756e-05 0.0013048155 -0.0012088146 -0.0008794484 -0.0011720366 0.00053733285 -0.0019047618 0.0033532968
0.0015514344 0.0024485977 0.001038286 0.0008047048 -0.000103662955 0.0013977059 -0.0013406624 0.0012931068
0.00045760628 -0.001978628 -0.0014994316 0.002214168 -0.0007971352 -2.6531983e-05 0.0004699754 -0.00088517234
5.4663513e-05 0.0020179406 0.00042277342 -3.2687734e-05 0.0034092534 8.615211e-05 0.0011369704 -0.0010404369
-0.0010367192 0.001700629 0.0039779944 0.00037881214 -0.0014998488 0.0013793713 0.0052231206 -0.0033837943
0.0022203238 0.00029126919 0.0018213553 -0.00197377 0.0022988396 0.00065713224 -0.0016370267 -0.00063246145
-0.002791827 0.0011693262 -0.0015314135 -3.4128723e-05 0.0028972663 0.0009105529 0.002925721 -0.00061781064
-0.0012859803 -0.0014005549 0.00053877255 0.0024334579 -0.0012915418 -0.0013269411 -0.0022594202 0.00074919267
0.0031519688 0.000986042 0.0015970075 0.0018005155 0.00085325114 -0.0008617026 0.0007896698 0.0029707726
-0.00011367339 -0.0011396379 -0.0003272959 -0.00092203345 0.0034831867 0.0013306561 0.004512489 -0.0005209835
0.00017108192 0.0045963507 0.00074633997 -0.0032724976 0.00058788294 0.00021482259 -0.003273996 0.00041630454
-8.1807404e-05 0.0025278374 0.0015681986 -0.00072875025
00000000: 7ef4 2bbb 0d08 86ba 61f0 0aba 1ac1 ecba
00000010: d1e6 a5ba 4899 173a ce6e 71b9 6ae9 48ba
00000020: 224d 9938 5806 ab3a 1671 9eba c88a 66ba
00000030: 069f 99ba ccdb 0c3a 33a9 f9ba fcc2 5b3b
00000040: 8059 cb3a a778 203b 1917 883a d3f2 523a
00000050: a065 d9b8 3a33 b73a 2ab9 afba 777d a93a
00000060: e0ea ef39 dfab 01bb 9388 c4ba 931b 113b
00000070: d6f6 50ba 0091 deb7 0867 f639 e90a 68ba
00000080: 8046 6538 6d3f 043b b0a7 dd39 301a 09b8
00000090: c86d 5f3b 90ac b438 6506 953a 455f 88ba
000000a0: 86e2 87ba a4e7 de3a d659 823b 4e9b c639
000000b0: 9396 c4ba 05cc b43a b626 ab3b a6c2 5dbb
000000c0: da82 113b 7db5 9839 8bba ee3a 5e5a 01bb
000000d0: 21a8 163b 6643 2c3a 8091 d6ba c5cb 25ba
000000e0: 16f7 36bb 1444 993a b6b9 c8ba 7025 0fb8
000000f0: 10e0 3d3b 2cb2 6e3a 74bd 3f3b 92f4 21ba
00000100: 578e a8ba d392 b7ba 6a3c 0d3a a67a 1f3b
00000110: f448 a9ba c1ec adba c812 14bb 7865 443a
00000120: 4391 4e3b 143e 813a ae52 d13a 46ff eb3a
00000130: b7ac 5f3a e2e3 61ba d801 4f3a 4bb1 423b
00000140: f063 eeb8 e75f 95ba e998 abb9 9eb4 71ba
00000150: 2d46 643b 6969 ae3a 80dd 933b 9c92 08ba
00000160: 7464 3339 fc9c 963b 07a6 433a 6677 56bb
00000170: 281c 1a3a 0042 6139 8a90 56bb 7343 da39
00000180: 0490 abb8 13aa 253b 038c cd3a 9a09 3fba

mu.weight f4 [6, 100]
0.15674901 0.10504224 -0.0066585154 0.10809584 -0.11053207 0.22141296 0.074139066 -0.104024455
-0.15173313 0.16096167 0.016405575 0.241148 -0.21819866 -0.03232459 -0.21845737 0.21596235
-0.08252952 0.22986045 0.13564387 -0.02036235 0.069239885 0.107608385 0.23228543 0.22075133
-0.13200547 -0.19911566 0.17641167 -0.096778154 0.03319376 -0.067821935 0.005518909 -0.035463333
0.19487078 0.0071735187 0.05681289 0.21735695 0.17144036 0.06728096 -0.09434871 -0.04001159
0.015410685 -0.2310401 -0.225812 -0.19507852 0.029289328 -0.12543628 0.056943003 -0.16150483
-0.13062097 0.22886989 -0.16196471 0.0873381 0.029151833 0.0643708 0.14371207 -0.1095012
-0.2061393 0.00579599 -0.17334445 -0.007563412 0.17736833 -0.13484529 -0.17741337 0.01052702
-0.052810904 0.0152074285 -0.06716749 0.19450182 -0.16943477 0.12882933 -0.21082896 0.06713571
0.18075089 0.025905678 0.0045086425 -0.04437194 0.22787827 -0.14016183 -0.21957207 -0.2117025
-0.16108961 -0.15193304 -0.11834939 0.07216762 0.09087339 0.05395729 -0.23661731 -0.16845985
0.12601675 0.15408714 -0.23048286 0.019950988 -0.036588676 0.006203246 -0.057683922 -0.18326905
-0.11746849 0.16305889 0.12699874 0.16202922 -0.059647996 0.0018096871 -0.13788952 0.16850881
-0.049694102 -0.0064095045 0.16958535 -0.16080937 0.042450752 0.22022882 0.013887538 -0.082584456
0.079286836 -0.16029353 -0.0048693605 -0.0062418384 -0.21202658 0.24778388 -0.10054368 0.20429756
-0.05054869 0.10851567 -0.0517659 0.0049413713 -0.010573052 -0.14962272 0.19228226 -0.0193747
-0.11929926 0.11435075 -0.025596654 -0.081071846 0.10842943 0.1295611 0.07330557 -0.0650282
0.09501607 0.07430905 0.12290944 -0.053994644 -0.055702362 -0.02014314 0.0072108945 0.0065865377
0.1295641 0.112212084 -0.12383973 -0.1993462 -0.1098078 -0.00865634 0.07469956 -0.027348835
0.06758882 0.16554828 0.21670704 -0.13326545 -0.035658017 -0.055394474 -0.005875376 0.17363395
-0.042603064 0.09147722 0.23291713 -0.023080816 -0.14038159 -0.13296637 0.012507003 0.11145111
-0.15097298 0.04713685 -0.12401893 0.092898436 -0.11687071 -0.101161756 0.044725545 0.04621431
-0.04473003 -0.011505958 0.1492545 0.1992903 -0.12551288 0.079830125 -0.04659999 0.19888918
0.025029022 0.01865662 0.11563032 -0.06752275 -0.13099895 0.23027237 0.020630885 -0.1121601
-0.17753404 0.21252932 0.11887121 0.04219252 0.12210043 0.01571649 0.21293297 0.16042957
-0.059508782 -0.016053677 -0.19714132 -0.17921068 -0.14528286 0.05537577 0.104302816 -0.22751929
-0.23251152 -0.03161408 -0.19264042 -0.16098747 0.10325738 0.08087634 -0.1608217 -0.20193322
0.19598833 0.23185621 -0.04382606 -0.1504424 0.20970626 0.008490054 0.16920412 -0.07278559
-0.14266945 -0.042354714 0.22482583 0.18029052 0.16853194 -0.12507088 0.1387753 0.23870048
0.20630236 0.18818036 -0.20799059 0.15765469 -0.16283081 -0.15531375 0.12596706 0.04766499
0.08826103 0.09845946 0.0062276367 -0.10713503 -0.12671363 0.17565808 -0.0857157 -0.08894894
-0.089934036 0.19537753 -0.036966085 -0.122345194 -0.10658814 0.080808856 -0.15322429 0.097784124
00000000: d082 203e 6320 d73d ad2f dabb 5a61 dd3d
00000010: a35e e2bd 14ba 623e 39d6 973d c60a d5bd
00000020: ee5f 1bbe 23d3 243e fc64 863c 80ef 763e
00000030: 786f 5fbe ca66 04bd 4ab3 5fbe 3c25 5d3e
00000040: 3d05 a9bd 8a60 6b3e 3ae6 0a3e f1ce a6bc
00000050: a4cd 8d3d c961 dc3d 3bdc 6d3e a30c 623e
00000060: 712c 07be fae4 4bbe 43a5 343e a033 c6bd
00000070: 2ef6 073d 3ae6 8abd f7d7 b43b 0042 11bd
00000080: 358c 473e d60f eb3b a2b4 683d d292 5e3e
00000090: 108e 2f3e 9aca 893d e539 c1bd 31e3 23bd
000000a0: 197d 7c3c c795 6cbe 433b 67be aac2 47be
000000b0: 2cf0 ef3c 5e72 00be 113d 693d 8661 25be
000000c0: 81c1 05be de5c 6a3e 14da 25be 51de b23d
000000d0: d3cf ee3c d7d4 833d 4229 133e 2a42 e0bd
000000e0: 2e16 53be 4aec bd3b 3581 31be 80d6 f7bb
000000f0: 0ba0 353e e214 0abe daab 35be 8679 2c3c
00000100: 3f50 58bd 9428 793c 1c8f 89bd 7c2b 473e
00000110: 4f80 2dbe d6eb 033e 8ce3 57be 727e 893d
00000120: c316 393e 2538 d43c 3cbd 933b 5abf 35bd
00000130: ec58 693e 9586 0fbe 80d7 60be 8ac8 58be
00000140: adf4 24be 5694 1bbe 2a61 f2bd 9ecc 933d
00000150: d41b ba3d 5202 5d3d cf4b 72be bd80 2cbe
00000160: 890a 013e 05c9 1d3e b303 6cbe 4170 a33c
00000170: 02de 15bd 9944 cb3b fa45 6cbd e2aa 3bbe
00000180: 5293 f0bd e9f8 263e f50b 023e fdea 253e
00000190: 7551 74bd 0633 ed3a e932 0dbe 938d 2c3e
000001a0: 0b8c 4bbd d206 d2bb c8a7 2d3e 36ab 24be
000001b0: d7e0 2d3d aa83 613e 8e88 633c 0a22 a9bd
000001c0: 2361 a23d fd23 24be 288f 9fbb 5688 ccbb
000001d0: 7f1d 59be 0fbb 7d3e d8e9 cdbd 6133 513e
000001e0: 250c 4fbd 773d de3d 7b08 54bd 3aeb a13b
000001f0: 983a 2dbc b336 19be a4e5 443e b1b7 9ebc
00000200: 2c53 f4bd ba30 ea3d 13b0 d1bc ff08 a6bd
00000210: 4010 de3d aaab 043e 3b21 963d 812d 85bd
00000220: c997 c23d 582f 983d f2b7 fb3d 7d29 5dbd
00000230: 2928 64bd 3a03 a5bc 5e49 ec3b e2d3 d73b
00000240: 74ac 043e 73cf e53d af9f fdbd 6921 4cbe
00000250: e9e2 e0bd 52d3 0dbc 15fc 983d aa0a e0bc
00000260: 026c 8a3d 7d85 293e 73e8 5d3e bd76 08be
00000270: 240e 12bd 51e5 62bd 3a86 c0bb 19cd 313e
00000280: 8d80 2ebd 6958 bb3d d481 6e3e fb13 bdbc
00000290: 31c0 0fbe 5628 08be 2cea 4c3c 7b40 e43d
000002a0: a998 1abe 9212 413d a3fd fdbd 8941 be3d
000002b0: e959 efbd e52d cfbd 2232 373d 374b 3d3d
000002c0: d636 37bd 7c83 3cbc 2cd6 183e c212 4c3e
000002d0: 7386 00be fa7d a33d a2df 3ebd 9ba9 4b3e
000002e0: aa09 cd3c c5d5 983c 97cf ec3d 5e49 8abd
000002f0: 9724 06be 85cc 6b3e 1a02 a93c 32b4 e5bd
00000300: 7ccb 35be 49a1 593e c072 f33d 10d2 2c3d
00000310: ca0f fa3d debf 803c 1a0b 5a3e a647 243e
00000320: 7bbf 73bd 0083 83bc 6adf 49be 0183 37be
00000330: 08c5 14be b4d1 623d b79c d53d d1fa 68be
00000340: 8017 6ebe c47d 01bd 8843 45be e6d9 24be
00000350: 9b78 d33d 7fa2 a53d 72ae 24be 95c7 4ebe
00000360: 2ab1 483e b76b 6d3e f482 33bd 930d 1abe
00000370: 3dbd 563e de19 0b3c d843 2d3e 9d10 95bd
00000380: f117 12be 237c 2dbd be38 663e 149e 383e
00000390: a393 2c3e 9512 00be 1d1b 0e3e e66d 743e
000003a0: ed40 533e 5ab2 403e 7cfb 54be 3b70 213e
000003b0: 1fbd 26be 910a 1fbe 82fd 003e 5d3c 433d
000003c0: 33c2 b43d 1da5 c93d 3411 cc3b 9c69 dbbd
000003d0: 38c1 01be b6df 333e b78b afbd dd2a b6bd
000003e0: 562f b8bd 0c11 483e c069 17bd 1e90 fabd
000003f0: e24a dabd 1d7f a53d d4e6 1cbe 0b43 c83d

mu.bias f4 [6]
0.0047428464 0.0068267416 0.0044720126 -0.0028286949 0.0024733301 -0.0057604555
00000000: e169 9b3b dcb2 df3b f689 923b a061 39bb
00000010: 9817 223b 34c2 bcbb
