pytorch-maml-rl/saves/maml-halfcheetah-dir/policy-2.pt (torch_old, 52201 bytes, 7 tensors)

sigma f4 [6]
00000000: bfdc 26bc 4ffd 84bc 5583 663c 8cf3 85bd
00000010: 4294 a8bc da65 5c3d
-0.010184466 -0.016234068 0.014069398 -0.065405935 -0.020578507 0.05380807

layer1.weight f4 [100, 20]
00000000: 7c1a 51be bb76 3a3e 09db 053d 6f45 c63d
00000010: 734b 71bd abb1 45be 3601 21bd 983d 36be
00000020: 9969 cebd bb6a 403d d566 573e 5617 b53b
00000030: 1c6a af3d 5592 2f3e ce72 6f3d 3a5d 143d
00000040: c09a 1fbe a143 ba3d 940c 2dbe 1053 21be
00000050: 81e0 a83d c8eb 8fbd bf8d 36be 2ba9 f1bd
00000060: c4e8 0dbd f23e 343e 5b6e 613e 7f27 e93d
00000070: 1bb1 92bd 5e7b 183e 3ccb c23d d2fb 643d
00000080: 86c1 3ebe 1976 0a3e 80ec 823d 350b 5ebe
00000090: 55a6 2cbe 5e6c ed3b 80e0 d83c 5556 37bd
000000a0: 883b eb3d d787 85bd f6f4 a93a 7ce7 6ebc
000000b0: 82eb 5c3e 19c3 313e 6e71 c6bd a9c1 d2bc
000000c0: 615c d83d 4d8d 173e e869 e13b ef28 2bbd
000000d0: 9c3a 063d 7093 0bbd 9d03 e33d 512a 19be
000000e0: 0cbe e53d 00cc 203e 185d 51be 2b36 233d
000000f0: abb6 8fbd 2848 cf3d d889 233e 1656 5d3e
00000100: 4074 cfb7 0802 0fbe c023 49be eebb 1abe
00000110: 2a3e 323d 7e16 8bbc 351d 693e de32 45be
00000120: c673 323e b7ac 2a3e eacf 813d 7a5f fcbd
00000130: ed0c efbd 8447 a23d 266d aabd a5e1 0fbe
00000140: 43dc 24be c394 663c cfad 533e 7a65 64be
00000150: 2afc a33d 2d48 d63d 9827 513e 260d ba3d
00000160: a6ad 21bd d719 96bd 1d44 61bc 7ac0 46be
00000170: 80f0 043c 55b6 11bd 5b72 47be efb4 d7bd
00000180: cf24 27be 35b4 533e 2992 60be bf31 8e3d
00000190: a16f e7bd af14 263e fe4e c43d 1b29 0ebe
000001a0: 449d 5bbe 5eed debd 1b6b 113e a995 f4bc
000001b0: 36dc 423e 949c 5fbe f9f6 e3bd 884e 563d
000001c0: 52ca 56bd a8b0 113d 008f 26ba 4777 993d
000001d0: 5e79 8dbd 1d3c d73d 142f 34be 9180 003e
000001e0: 18ef 2abd 7ca4 4d3e 4af2 de3d d773 b13c
000001f0: 9be5 fdbc 7267 f6bd 70c5 2f3e efbb dd3d
00000200: 72b5 e1bd a7f1 0bbe c628 b33d 7c1e f53d
00000210: d4b6 473c 935c 98bd 5398 d43d 3350 2fbe
00000220: 4a2a f73d 0a85 573e e245 1a3e d968 d7bb
00000230: c673 58bd 4f36 61be a571 9bbc 5139 d6bd
00000240: 62ad 45be d8e7 96bd c755 3d3e 2de8 46be
00000250: a12f 4bbe 01f6 fabd 3e64 9c3d 104f 0dbd
00000260: 5153 28be bbc6 3c3e dc9c 27be 3d01 6b3e
00000270: f68e 45be 234a 0a3e ac16 073e 4a01 cdbd
00000280: e5ea 493e 0af9 d73d 3b35 a5bb 9a98 843b
00000290: f09b 7a3d 55b0 47bd b57e 53be ecc4 cfbd
000002a0: 549b 5ebe 302a 9c3b 43ed 1abb f14f 41be
000002b0: 8abe 923d ba31 1bbe 7558 15be 828f 67bd
000002c0: da78 1e3d 3b52 4bbd 021b 1b3e 6c1a 73bd
000002d0: 13f3 96bd b600 61be 5e3e 5e3d 369a 48be
000002e0: 4cf5 51be 0bc8 e5bd b9b5 3dbd b54e c9bd
000002f0: 77b2 06be 4caf bfbd ea9b 4dbe c638 fbbd
00000300: 28a4 383d f6ea 94bd c52b edbd 8693 313e
00000310: 431d 563e a22e fbbc 8009 a33b 51e7 6d3c
00000320: 7bd3 50be be2b 6e3c fe3a 3fbe d5b7 7ebd
00000330: e6bb 9a3c bd35 063d 4dde 9cbd db2c e43d
00000340: 65a4 c0bd 0486 ad3d 7f3c 7e3d 6843 e4bd
00000350: 707c 67be c9c0 e03d 3e14 c0bd 6770 293e
00000360: 396b 31be e2f8 adbc b8eb 43be 0c94 23be
00000370: ae60 a7bd f472 98bd a6f4 d1bd 41c2 3a3e
00000380: c858 71bd f103 233e 0a00 053e 549d 4bbe
00000390: 58a6 b03d 139e 203e 68df 153e 0051 0ebe
000003a0: 0d6d 96bd df9f 99bd dc6d 34be c3f3 08bd
000003b0: e933 023e eeee 8bbd 2c41 993d 831d 143e
000003c0: a7a9 27be db3d b43d 5d87 09be 1db9 403e
000003d0: b390 00be 0104 ff3d 4e4d 4a3e 792b 5b3e
000003e0: 3539 5a3e 36a8 a6bd 3c60 9dbd e8c2 fc3d
000003f0: 49f7 f53b 2233 5a3e 58f7 13bd 8835 a03d
-0.20420259 0.18209355 0.03267959 0.09681212 -0.058909845 -0.19306056 -0.039307795 -0.17796934
-0.10078735 0.046976786 0.21035321 0.0055264635 0.08565161 0.17145665 0.058459096 0.03622172
-0.15586376 0.090949304 -0.1689933 -0.15754342 0.08245946 -0.070273936 -0.1782751 -0.11799844
-0.03464581 0.17602137 0.22014754 0.113844864 -0.071626864 0.14890811 0.0951142 0.055904217
-0.18628511 0.13521613 0.06392765 -0.21683963 -0.16860326 0.0072455844 0.026474237 -0.044760067
0.11485964 -0.0652005 0.0012966681 -0.014581557 0.21574214 0.1735958 -0.09689604 -0.02572711
0.10564495 0.14799996 0.00687908 -0.041787084 0.032770738 -0.034076154 0.110846736 -0.14957549
0.11217889 0.1570282 -0.20445669 0.03984658 -0.07017263 0.101211846 0.15970552 0.2161487
-2.4730456e-05 -0.13965619 -0.19642544 -0.15110752 0.043516316 -0.016978499 0.22765048 -0.19257686
0.17426977 0.16667448 0.063384846 -0.12322898 -0.11672387 0.07923797 -0.083216 -0.1405092
-0.16099648 0.0140735535 0.20671771 -0.22304335 0.08007081 0.10462985 0.2042526 0.09084539
-0.039472245 -0.07329147 -0.01374915 -0.19409361 0.00811398 -0.035574276 -0.19477217 -0.10532557
-0.16322635 0.20674212 -0.21930756 0.06943082 -0.113005884 0.16218828 0.09585379 -0.13882868
-0.21446711 -0.10885118 0.14201014 -0.02985652 0.19029316 -0.21837074 -0.11131091 0.052320987
-0.05243904 0.035568863 -0.0006353706 0.074934535 -0.069079146 0.105095126 -0.17596084 0.12549044
-0.041731924 0.20082277 0.10886057 0.021661682 -0.030993273 -0.120314494 0.1716516 0.10826861
-0.11020936 -0.13666402 0.08748011 0.11968705 0.012189586 -0.07439532 0.10380616 -0.17120437
0.12068613 0.21046844 0.1506572 -0.006573778 -0.052844785 -0.21993373 -0.018975088 -0.10460151
-0.19304422 -0.073684394 0.18489753 -0.19424506 -0.19842388 -0.12253953 0.07636307 -0.034499228
-0.16438033 0.18435185 -0.16368431 0.22949691 -0.19292817 0.13504843 0.13192242 -0.100100115
0.19718511 0.10545547 -0.005041746 0.004046512 0.06118387 -0.048752148 -0.20653804 -0.10144982
-0.2173894 0.0047657713 -0.0023639954 -0.18878151 0.07165249 -0.15155688 -0.14584525 -0.056533344
0.03868947 -0.049638968 0.15147021 -0.05935137 -0.073705815 -0.21972927 0.054258697 -0.19590077
-0.2050373 -0.11219796 -0.046315882 -0.09829465 -0.13154016 -0.09359607 -0.20079008 -0.12266688
0.045078427 -0.07271378 -0.11580614 0.17341432 0.209096 -0.030661885 0.0049754977 0.014520482
-0.20393173 0.014536796 -0.18674847 -0.062187035 0.018888425 0.032766093 -0.07659588 0.11141368
-0.09406356 0.08472827 0.062069412 -0.11145669 -0.22606063 0.10974271 -0.09378861 0.16546784
-0.17326058 -0.02123684 -0.19132888 -0.15974444 -0.08172737 -0.074438006 -0.10251741 0.18238164
-0.05892256 0.15919472 0.12988296 -0.19884235 0.086254776 0.156853 0.14636004 -0.13898087
-0.073450185 -0.07501196 -0.17620033 -0.033435594 0.12715115 -0.068326816 0.07483134 0.14464383
-0.16373311 0.088008605 -0.13430543 0.18820615 -0.12555198 0.124519356 0.19756052 0.21403302
0.21310885 -0.081375524 -0.07684371 0.12341863 0.0075062853 0.21308568 -0.036124557 0.0782271

layer1.bias f4 [100]
00000000: a857 273b 7204 dc3a 7264 0539 d5d0 f1ba
00000010: 17d6 3eba 3792 b2b9 474b d3ba ed47 08bb
00000020: f3bd d33a 62a8 40bb 805e 6aba c0f1 103a
00000030: ba20 323b 9dfb 74bb b095 ab3a 0b04 13bb
00000040: 7dd5 61bb 7697 8d39 7526 313b 2a96 d53a
00000050: fe88 163b c7c1 093b 9cc9 0638 44e7 69bb
00000060: cc12 543a 2282 95bb c314 cbba 3e97 843b
00000070: d43a 7ebb 04dc b6ba 31f4 8e3a 7849 9b3a
00000080: e2fd 6e3a f998 7939 5089 55ba 412c 6abb
00000090: 0cc5 5cbb 54f5 1c3b 7213 7539 96ee e7ba
000000a0: d4a7 503b d271 c03a ae76 90bb 9cef 203b
000000b0: f05b 403b bc22 163a de4f e6b9 6a2a 153a
000000c0: eae1 353a bba2 aaba e684 d63a 8692 083b
000000d0: cbe3 caba 49d0 75ba 420b 4fbb 60ae ec39
000000e0: d624 b73b 5c49 9039 7e9e e2ba 76c0 73ba
000000f0: 4c69 d039 e069 0e37 a008 5c3a 5497 913a
00000100: ec5a 273a f884 a4ba bcdf 233b 08af 8cba
00000110: 705b ed3a 8aad 08ba 404c 263b e7a2 2cbb
00000120: a043 d7ba e6d3 80ba 2b98 43bb d26b 31ba
00000130: 78f4 cf3a 2aaa 84bb f458 fdba 7095 8eba
00000140: 48c7 bb39 dceb 63ba 04cd a3b9 40f8 8d3a
00000150: b49c c739 3f86 9dba 6072 063b acf9 68bb
00000160: 0c9e 51b9 23e9 96ba 9cb5 863b 02c6 b6bb
00000170: b265 763b 0375 843b 5098 de39 c04b ccba
00000180: 7ab3 f8ba aa39 1e3a 8670 20bb 0068 e1b9
0.0025534425 0.0016785993 0.00012721287 -0.0018449078 -0.00072798267 -0.00034059744 -0.0016120457 -0.0020794824
0.0016154632 -0.002939724 -0.0008940473 0.00055291876 0.002718015 -0.0037381419 0.0013090875 -0.002243283
-0.0034459524 0.00027006463 0.0027030979 0.0016295363 0.0022969837 0.0021020041 3.2135853e-05 -0.0035690824
0.0008089959 -0.004562632 -0.0015493858 0.00404635 -0.0038792389 -0.0013951068 0.0010906515 0.0011847457
0.0009116811 0.00023803477 -0.00081457663 -0.0035731944 -0.0033686785 0.0023949938 0.00023372265 -0.0017695006
0.0031838315 0.0014682359 -0.004408679 0.002455688 0.0029351674 0.0005727222 -0.00043928524 0.0005690219
0.0006938266 -0.0013018468 0.0016366511 0.0020839288 -0.0015479265 -0.0009377045 -0.0031592404 0.00045143347
0.005589108 0.00027520477 -0.0017289666 -0.0009298393 0.00039751304 8.4885105e-06 0.0008393619 0.0011107721
0.0006384093 -0.0012551835 0.0025005182 -0.0010733316 0.0018108916 -0.00052138476 0.0025375038 -0.0026342215
-0.0016423352 -0.0009828776 -0.0029845338 -0.00067680806 0.0015865704 -0.0040486054 -0.0019328878 -0.0010878276
0.00035815896 -0.00086945086 -0.0003124253 0.001083143 0.0003807299 -0.0012018158 0.002051495 -0.0035549207
-0.0001999067 -0.0011513572 0.004111005 -0.0055778036 0.0037597236 0.004042269 0.0004245662 -0.001558654
-0.0018974387 0.00060358143 -0.0024481132 -0.0004299283

layer2.weight f4 [100, 100]
00000000: 6f22 273e e2c9 babd a722 93bd 83cb a03d
00000010: d72f 41bd 1350 16be a911 4f3b 48e8 11be
00000020: 8415 f73d 9d01 263e 7430 f33d 0418 013d
00000030: 8c1a 073d c0cc ea3d f8f0 8ebd bd2f 043e
00000040: fd3e c23d 77f4 183e 0021 c1bd 5368 05be
00000050: 7ee9 eebc 0b67 29be 83ab 20be 5aea 92bd
00000060: a1e2 953c b6b1 e2bd f5a1 12be 96b5 583d
00000070: 9e3a 3a3d 3058 5e3d 8432 1f3e 751f 73bd
00000080: ad06 413d 5563 05bd d3e6 33bd d126 1bbe
00000090: 11dd 0f3e 84b2 313d e2c6 01be 9569 be3d
000000a0: ae0a 9bbd c6b0 b7bd 8db3 97bd 7e2b 00be
000000b0: 394e c93d 15f6 023e 6650 f23d 14e3 ff3d
000000c0: 130a 2ebe b9f5 233e d5e8 fa3c 92a4 103e
000000d0: 7c37 d43b f6ac 7a3d beab e4bd daaf a1bd
000000e0: 2577 8b3d 8fe7 c2bc 11e9 183d a5f1 1d3e
000000f0: 731f 243e 5dd3 a0bd cde8 1cbe 1f3a 07be
00000100: dd6c 1e3e a140 4dbd 1bd2 033d 67f5 23bd
00000110: ac31 cebb 0147 1fbe 7427 0c3e 6640 32bb
00000120: 321d 4c3d 41dc dfbd f0c4 1e3e 8da1 1f3e
00000130: 4f8b b63d a88c bdbd f55d b8bd 25a1 a1bd
00000140: 8ffc cfbc 4d2a 18bd 2a50 193e 7b88 0e3d
00000150: cd31 c2bd ebbd f33d a5c5 c43d 06ff e3bd
00000160: 4f31 4b3d 9bff 8ebd ae78 e7bc 8f1f 313c
00000170: 5835 933d 1ce2 eabd f2b1 ab3d 0e3b 26bd
00000180: 99a0 4ebd 9768 f6bd 064b debd b734 12be
00000190: e9b6 0dbe 1638 16be f128 aebb bd6f fdbc
000001a0: 4f28 953c 8e9e 10bc e71c 2a3d bde5 743c
000001b0: 9b9c e2bc 7316 953d 1c46 57bd d591 ed3c
000001c0: 81fe dcbd 93f1 073e 83e8 37be 55e4 223e
000001d0: 319e 143e 46e4 de3d a366 e1bd 9a77 dcbd
000001e0: c906 59bd 37cd 24be 0059 643d a216 d83c
000001f0: b8a1 22be 7c29 30be 8914 153d 866f 013d
00000200: ec1f 19be 80dc b73d 94b1 433d 1bca ecbd
00000210: 48ca 9bbd 689d ba3d 9b7a a0bd e920 b43d
00000220: 08f2 993d ec1a ebbd 6bb7 e43d c8fd e63d
00000230: 5cd5 fabc 14f9 6ebd 7a92 083e 433e a0bd
00000240: 521b 1d3d 270d 8cbd 93e9 eb3d cd5f 9b3d
00000250: 437c 6fbd 9057 1ebd e210 e03d 166a 8dbd
00000260: 6bf9 d53d b4a5 c43d 1d73 d43d 10c9 d4bd
00000270: 83e5 20be f99b c23d 8ff2 11be 2844 043e
00000280: e089 b63a 26bc 993c ad1d 70bd 4791 793c
00000290: e47f 983c dde5 16be a6bb 8e3d abd4 e13d
000002a0: f806 7fbd 71a3 31be b17f 8d3d 141b 1c3e
000002b0: b0af 2e3e 57a7 da3b 6e36 e5bd e606 05bd
000002c0: 884a a33d 6da5 583d d259 fd3c 5fd6 133e
000002d0: 6427 0abd 2061 45bd d9b7 febd 5904 1bbe
000002e0: 80e7 303d 055f d3bd e845 8bbd 0a73 a43d
000002f0: 7124 643d 4ee5 a03d d96d 9dbd f2f0 75bd
00000300: e838 23be 9864 e53d caf5 1b3d 815a 0e3e
00000310: 5b52 883b a34e 323d c767 e43d 0994 a43d
00000320: 9512 0ebe bb99 2b3d b8f2 8cb8 3c8d ee3d
00000330: 99a6 8dbd 7663 4bbc 1ab0 e53b a1de 0c3b
00000340: cc79 8e3d f787 2b3e d067 84bc f729 0fbe
00000350: 0132 1dbe 242a 283e dedd bdbc 6c5c 0b3e
00000360: a3df 1dbe 9465 dd3d 8a1b ac3d 2b92 54bd
00000370: aa77 29bd 7eab 85bd 7bb9 d33d 940e 003e
00000380: 2757 a43d 8938 e73d 0474 0c3e a7b7 b53d
00000390: 57d3 c5bd eb27 023d d3da c4bc e63f febc
000003a0: c301 a9bc 7e99 5dbc c722 923c 67d2 133d
000003b0: af02 1abe bdb7 b33d b421 023d 8e1e 003e
000003c0: 42f6 6f3d eff5 27bc 9ddc 163e eec0 cabd
000003d0: 5059 17be 9a54 afbd 479f 09be 8a99 2abe
000003e0: 1253 d1bd e825 a83d 84fa fbbd 05ec 97bc
000003f0: 4345 973d 7e2f d13d f753 fd3d f3cd 473b
0.16321729 -0.09120537 -0.07184344 0.07851317 -0.047164764 -0.14678983 0.003159622 -0.14248765
0.12064651 0.16211553 0.11874476 0.031517044 0.0329843 0.11464834 -0.06979555 0.12908836
0.0948467 0.14937006 -0.094301224 -0.13028078 -0.029164072 -0.16543214 -0.15690427 -0.07173605
0.018296542 -0.11069052 -0.14319594 0.05290755 0.045466058 0.05428332 0.15546614 -0.05935617
0.047125507 -0.032565434 -0.043921303 -0.15151526 0.14049174 0.043383136 -0.12673524 0.09297482
-0.07570396 -0.08969264 -0.074072935 -0.12516591 0.09829373 0.12789185 0.11831741 0.124944836
-0.1699603 0.16011705 0.030628601 0.14125279 0.006476341 0.061200105 -0.1116557 -0.07894869
0.068098344 -0.023792056 0.037331644 0.15424211 0.16027622 -0.07852814 -0.15323181 -0.13205765
0.15471216 -0.050110463 0.032182794 -0.040028956 -0.0062925424 -0.1555443 0.13686925 -0.002719903
0.04983253 -0.10930682 0.15504813 0.1558897 0.0891329 -0.09255344 -0.09002296 -0.07892064
-0.025388984 -0.037149716 0.14971986 0.034798127 -0.09482155 0.11901458 0.0960801 -0.11132626
0.04960757 -0.069823466 -0.028255787 0.010810747 0.07187909 -0.11468908 0.0838355 -0.040583663
-0.050446127 -0.12031668 -0.10854153 -0.14277922 -0.13839306 -0.14669833 -0.005314939 -0.03093707
0.018207697 -0.008826865 0.04153147 0.014947352 -0.027662566 0.072796725 -0.052557096 0.029000202
-0.1079073 0.13275747 -0.1795979 0.15907414 0.1451347 0.108833835 -0.110059045 -0.10765
-0.052984986 -0.16093908 0.05574894 0.02637798 -0.15882003 -0.17203325 0.036396537 0.031600498
-0.14953583 0.08977604 0.047776774 -0.11561986 -0.076069415 0.09112054 -0.07835885 0.087953396
0.07516867 -0.11479744 0.11167797 0.11278874 -0.030619316 -0.05834301 0.13337126 -0.078243755
0.038356133 -0.06838446 0.1151916 0.07586632 -0.058468115 -0.038657725 0.1094072 -0.06905
0.10447963 0.09601918 0.103735186 -0.10389912 -0.15712552 0.09502406 -0.14252685 0.12916625
0.0013926588 0.018766474 -0.05862205 0.015232391 0.01861567 -0.14736123 0.06969385 0.11026891
-0.062262505 -0.17347504 0.06909121 0.15244704 0.17059207 0.0066727805 -0.11192022 -0.032477282
0.079732 0.052892137 0.030926619 0.14437245 -0.033728972 -0.04818833 -0.1243741 -0.15138377
0.043189526 -0.10320858 -0.06800443 0.080297545 0.055698816 0.078562364 -0.076869674 -0.060044236
-0.15939677 0.11200827 0.0380762 0.13901712 0.004160208 0.043532025 0.111526065 0.08036048
-0.13874276 0.041894656 -6.72093e-05 0.11648032 -0.069165416 -0.01241385 0.0070095183 0.0021495002
0.06956825 0.16751085 -0.016162783 -0.13980852 -0.15351106 0.16422325 -0.023177084 0.13609475
-0.15417342 0.1081039 0.0840369 -0.05189721 -0.041373886 -0.0652685 0.10338112 0.12505561
0.080244355 0.1129008 0.13716131 0.088729195 -0.096594505 0.03177635 -0.024030125 -0.031036329
-0.020630723 -0.013525365 0.017838849 0.036089327 -0.15040086 0.0877528 0.031770423 0.12511656
0.05858446 -0.010251506 0.14732595 -0.0990008 -0.14780164 -0.08561058 -0.13439666 -0.16660133
-0.102209225 0.08210355 -0.123036414 -0.01854516 0.073862575 0.102141365 0.12369531 0.0030487746

layer2.bias f4 [100]
00000000: 6630 2fbb 608d 5bba 58b8 89b8 32d4 97ba
00000010: 149f a8ba e332 673b 37a1 95ba 5e82 29bb
00000020: fcde 00ba 42b1 c73a 02b9 f0ba 3435 b73a
00000030: 0a74 74bb f298 1739 8276 7cba e51b 673b
00000040: b9f4 0a3b 7fcc 293b 8042 d6b8 2187 de39
00000050: 4187 a1b8 86db 4a3b d00d 1fba 47ca 1c3b
00000060: 08d9 b2ba 48a2 67bb 5954 c53a 435c 3d3b
00000070: 50a2 0b3a e96f b23a 9eff 8cba a49e faba
00000080: c09a 553a 82d6 8c3a 88f6 a9ba bc58 253b
00000090: 2408 d33b 1139 4d3a 5691 fc3a 4d52 b8ba
000000a0: 4d10 8dba f2ce 1c3b e102 9f3b 3cf3 c638
000000b0: 0b10 71ba 105a 36b9 7ec5 be3b 8bbe a2bb
000000c0: aa22 a83b e64b 333a 8e20 ed3a e8dd 38bb
000000d0: fa42 0b3b 2cf9 673b 483d b6b9 f698 7bba
000000e0: 2df3 a8bb 957b 513b 70c1 94ba e37b 11b8
000000f0: 35c5 1f3b b000 e4b9 cc80 2a3b 7c7b 453a
00000100: 7c0c d9ba 8c38 64ba 5440 05ba b62a b03b
00000110: 7e23 eaba 26f6 7fba 2e8e 83bb 6058 07ba
00000120: 0404 923b 13c8 b23a 5aaf 593b 01af 0e3b
00000130: ef22 2e3b b8bf e5ba e752 783a 7eef 0f3b
00000140: 8adb 8839 e8be ecba fbbc 80ba 2a04 4a3a
00000150: de86 b53b 80a6 1aba 34a5 6a3b 78b3 e1ba
00000160: 4e0d 5939 e857 463b 6c84 e83a 54e2 8bbb
00000170: 00d0 553a 50eb f4b9 e3da babb 703a dc39
00000180: 820d fcb8 1141 703b f6ea 8c3a 2c78 1539
-0.0026731729 -0.00083752535 -6.567006e-05 -0.0011583625 -0.0012864792 0.0035278134 -0.0011415844 -0.0025865058
-0.000491604 0.0015235322 -0.0018365683 0.0013977648 -0.003730061 0.00014457459 -0.0009630696 0.003526443
0.0021202995 0.0025909243 -0.00010216702 0.00042443819 -7.702271e-05 0.00309536 -0.0006067427 0.0023924278
-0.0013645003 -0.003534453 0.0015055045 0.0028894104 0.00053266156 0.0013613674 -0.0010757332 -0.0019120765
0.0008148365 0.0010745081 -0.0012967149 0.0025229892 0.0064401794 0.0007828633 0.0019269388 -0.0014062613
-0.0010762304 0.002392706 0.004852638 9.486682e-05 -0.0009195811 -0.00017390423 0.0058218827 -0.004966562
0.0051310854 0.0006839618 0.0018091367 -0.0028208438 0.0021249638 0.003539632 -0.00034759403 -0.0009597683
-0.005155942 0.003196453 -0.0011349153 -3.4686072e-05 0.002437902 -0.0004348806 0.002601671 0.0007533354
-0.0016559507 -0.0008705936 -0.0005083133 0.0053761853 -0.0017863361 -0.0009764157 -0.004014752 -0.000516301
0.004456045 0.0013639949 0.003321609 0.002177179 0.0026571115 -0.001752845 0.00094728026 0.0021962817
0.0002610351 -0.0018062266 -0.0009821946 0.0007706309 0.005539759 -0.0005899444 0.0035804035 -0.0017219624
0.00020699689 0.0030264799 0.001773966 -0.004268924 0.00081562996 -0.00046714628 -0.005702363 0.0004200521
-0.000120188124 0.0036659876 0.0010751176 0.00014254515

mu.weight f4 [6, 100]
00000000: d4cb 193e eee9 d23d 7a2b cdbb a4f7 c33d
00000010: 8ebe d7bd 21ae 5e3e 7c0e 983d ed8d cdbd
00000020: 7264 1bbe 9a78 243e 1784 4e3c 6478 763e
00000030: 6cc0 60be 7af2 13bd a7f6 62be 130b 5b3e
00000040: dbab b6bd 33ac 5f3e 2bae 093e 46cc 63bc
00000050: 5640 8b3d f044 df3d 7762 663e 18ac 683e
00000060: 8924 08be dbe8 4abe 573b 343e d9e9 d1bd
00000070: db67 ef3c bf73 8cbd ded8 953b 61f6 20bd
00000080: c395 463e 7807 2c3c de41 6d3d c856 5f3e
00000090: ea0a 313e c6ae 963d 98f4 b9bd 64e5 25bd
000000a0: 1da0 ae3c 666c 6cbe 3e07 68be 5690 4cbe
000000b0: 6635 203d e96e fbbd 4a0a 813d fd14 27be
000000c0: af5e 07be 483e 693e 412a 22be 7739 bc3d
000000d0: 308c 123d b630 733d 3e5c 143e c8bf f5bd
000000e0: 5528 4fbe b2e0 903b 2afa 35be 5ca4 59bc
000000f0: c124 3c3e c9c4 07be 1019 3abe 1507 423c
00000100: 6eeb 57bd 0dce 773c 3fc6 7cbd 3438 3d3e
00000110: 996d 2cbe 7266 013e 2f12 57be 4b3b 8d3d
00000120: 94cb 3e3e f28e f73c 36ad 0abb 77b5 23bd
00000130: 740c 653e f501 0cbe c42f 60be 1f92 51be
00000140: f788 24be e75b 18be 84dc f2bd 6c4f 973d
00000150: 9f6e ad3d 12a6 553d 45d3 6fbe 35b8 2abe
00000160: effb 033e e905 1f3e 54fe 71be def3 9e3c
00000170: a7e1 0cbd b04d 2f3c 65e3 58bd 373f 40be
00000180: 3a3f efbd e50c 253e 4d9a 013e 7eae 293e
00000190: 64c3 79bd 7628 9dbb eb16 0dbe e94d 203e
000001a0: 0508 32bd d068 82bb 140c 2f3e 8116 25be
000001b0: 1ccb 2d3d db37 613e b7a0 563c 7806 bcbd
000001c0: db41 aa3d cdf9 21be fa3b 33bc 7fa1 2bbb
000001d0: b025 54be 9cff 783e 9328 c8bd 019d 533e
000001e0: f296 24bd 28a6 c13d 30f2 43bd 9cde 8cba
000001f0: f109 61bc bcbc 12be 6c9d 4b3e c72b 97bc
00000200: 324d f1bd 9ca2 e13d 305e 85bc 000a a6bd
00000210: 1813 e53d 345c 0d3e 46e9 9e3d f0ce 84bd
00000220: 4230 cb3d 6d03 9f3d 19cd 033e c13d 5bbd
00000230: 30f5 4fbd 6044 9cbc 7c2d 943a deb2 263c
00000240: 4edf 083e 9e9b e63d 8219 fdbd 3c87 4dbe
00000250: 38f2 d7bd c299 cabb 53c7 a03d 6804 f1bc
00000260: 3de1 873d c7f3 2d3e d9bf 5e3e fa4e 0ebe
00000270: 6081 19bd 403f 72bd 8b8c 70bc f80a 383e
00000280: 6cdb 28bd b25d b33d 079e 6e3e 66c2 b6bc
00000290: 6aaa 0ebe 7ec3 08be 163d 2f3c 9aaf e03d
000002a0: b244 17be d048 413d 046c eebd 27eb b33d
000002b0: 3f8f ecbd b66b d6bd 6769 323d c927 4e3d
000002c0: 9e05 26bd e24c f3bb 8ad1 183e 659f 503e
000002d0: 2659 f5bd b046 ae3d d557 2cbd c2b2 463e
000002e0: 5695 f23c 35f7 9b3c 6b97 f23d eceb 6dbd
000002f0: d853 0bbe 820c 673e 6d3b b93c bbce e4bd
00000300: 9934 3dbe 3477 543e 4ba9 fb3d 7b93 363d
00000310: ac50 f73d 92d6 a23c ae3b 523e ca47 203e
00000320: 9684 80bd 8a6a 92bc 2566 42be a8f0 2bbe
00000330: 7a98 18be 094f 693d 29e9 cb3d 0cbd 67be
00000340: 360f 6ebe 526a f7bc eeb3 40be bd7b 29be
00000350: a4ff ce3d a4f5 933d 3a69 2cbe e2ad 4abe
00000360: 1e43 493e c0b7 6f3e 35de 27bd 6cc9 22be
00000370: 7198 563e c18a d63b fe5f 2f3e a761 94bd
00000380: e44c 10be 7de0 48bd b413 623e df4d 363e
00000390: 503e 303e fcf9 08be d12e 0f3e 81b8 793e
000003a0: ace1 4f3e 13ae 443e a112 57be a014 1a3e
000003b0: 0635 23be dca5 1ebe 3ce9 023e bb0f 3d3d
000003c0: 7670 a93d 4598 d03d 1f9b 503c 6fde e9bd
000003d0: 7ffd fbbd df1d 2f3e 9af3 b4bd e79a c8bd
000003e0: 0371 b3bd 1229 403e e060 2abd 54fe ffbd
000003f0: 5ee3 d6bd 0e0c b33d 03a3 21be 80e4 ca3d
0.1501916 0.10298525 -0.0062612863 0.09568718 -0.10534392 0.21746112 0.07424638 -0.10036836
-0.15175036 0.16061631 0.012604735 0.24069363 -0.21948403 -0.036119916 -0.22164403 0.21390943
-0.089194976 0.21843033 0.13445346 -0.013903683 0.067993805 0.10901821 0.22498499 0.22721899
-0.13295187 -0.1981539 0.17600761 -0.10249681 0.029224327 -0.06858014 0.0045729717 -0.039297465
0.19393067 0.010499828 0.057924144 0.21810448 0.1728932 0.07357554 -0.09079856 -0.040501967
0.021316582 -0.23088226 -0.22659013 -0.19976935 0.039113425 -0.12277014 0.063007906 -0.163166
-0.13219713 0.22777665 -0.15836431 0.09190648 0.035778224 0.059372626 0.14488313 -0.1199947
-0.20230229 0.004421317 -0.17771211 -0.013283815 0.18373396 -0.13258661 -0.18173623 0.011842509
-0.052714758 0.01512481 -0.0617125 0.18478471 -0.16838683 0.12636736 -0.2100303 0.06896075
0.18632346 0.030219529 -0.002116037 -0.03996798 0.22368032 -0.13672622 -0.21893221 -0.20465897
-0.16067873 -0.14878808 -0.11858466 0.073881954 0.08468365 0.05216033 -0.23420437 -0.16671832
0.12889074 0.15529598 -0.23632175 0.019403394 -0.034394886 0.0106996745 -0.052951235 -0.18774115
-0.116819814 0.161182 0.12656517 0.1657047 -0.060977355 -0.004796083 -0.13778274 0.1565472
-0.04346468 -0.00397978 0.17094451 -0.16121866 0.04243003 0.21993963 0.013099841 -0.09180921
0.08313342 -0.15817948 -0.0109395925 -0.0026188788 -0.20717502 0.24316257 -0.09773364 0.20665361
-0.040183015 0.0945552 -0.04783839 -0.0010747495 -0.01373528 -0.14329809 0.1988427 -0.018453492
-0.11782302 0.110173434 -0.016280264 -0.08107376 0.111852825 0.13804704 0.07759337 -0.06484783
0.09921314 0.07764325 0.12871207 -0.05352569 -0.05077094 -0.019075572 0.0011305059 0.010174481
0.13366434 0.112601504 -0.12358381 -0.20071119 -0.105442464 -0.00618288 0.07850518 -0.029421046
0.06634758 0.16987525 0.21752872 -0.13897315 -0.037476897 -0.05914235 -0.014681946 0.17972934
-0.041224882 0.08758105 0.2330247 -0.022309493 -0.13932195 -0.13355824 0.010695716 0.10970993
-0.14772299 0.04718858 -0.11641696 0.08785086 -0.115507595 -0.10469763 0.04355755 0.05033091
-0.0405327 -0.0074249366 0.14923683 0.20373304 -0.11979894 0.08509576 -0.04207595 0.19404128
0.029612225 0.019038776 0.11845287 -0.05808632 -0.13606203 0.22563365 0.022611344 -0.11172243
-0.18477096 0.20748597 0.122881494 0.044574242 0.12075934 0.019877706 0.20530578 0.15652385
-0.06275289 -0.017873067 -0.18984278 -0.16791022 -0.14901915 0.05696014 0.09956581 -0.2263071
-0.2324799 -0.030202065 -0.18818638 -0.16551109 0.10107353 0.072245866 -0.16837016 -0.19792894
0.1965451 0.23409939 -0.040983398 -0.15897149 0.2095659 0.0065473025 0.17126462 -0.07245188
-0.14091831 -0.049042214 0.22077829 0.17803143 0.1721127 -0.13376611 0.13982703 0.24386789
0.2030093 0.19207029 -0.210032 0.1504693 -0.15938196 -0.15492958 0.12784284 0.04615758
0.08273403 0.10185293 0.012732296 -0.11419379 -0.1230421 0.17101239 -0.08835526 -0.0979517
-0.0876179 0.18765667 -0.041596293 -0.12499681 -0.104925856 0.087425336 -0.1578484 0.09906864

mu.bias f4 [6]
00000000: 843f 353c 705f 0e3c 99dc a23b 06d2 b9bb
00000010: ee8c 713b fb81 dcbb
0.011062507 0.008689746 0.004970145 -0.0056707887 0.0036857682 -0.006729362
