pytorch-maml-rl/saves/maml-halfcheetah-dir/policy-4.pt (torch_old, 52201 bytes, 7 tensors)

sigma f4 [6]
000000 2e 76 84 bd 94 c9 f1 bc 7f 37 6f 3c 86 9d 91 bd
       -0.064678535 -0.029515065 0.014600634 -0.07110123
000010 6f b6 ad bc 71 e5 b1 3c
       -0.021205155 0.021715852

layer1.weight f4 [100, 20]
000000 d7 88 50 be d6 ac 35 3e 56 29 03 3d a1 0c c6 3d
       -0.203647 0.17741713 0.032021843 0.096703775
000010 da e6 6b bd ea ff 46 be 64 39 1c bd a5 f7 36 be
       -0.057593204 -0.19433561 -0.03814067 -0.17867906
000020 af b1 d9 bd 9e e8 49 3d 57 62 5c 3e e8 0d 41 3b
       -0.106295936 0.049294107 0.21521889 0.0029457752
000030 a4 52 b2 3d dd 23 3b 3e a4 29 e2 3c d2 cb 90 3c
       0.08707169 0.182754 0.027607746 0.017675314
000040 21 95 19 be 89 7a af 3d 94 0c 2d be 11 f1 1f be
       -0.14998294 0.085682936 -0.1689933 -0.15619303
000050 cc 03 a8 3d 4e 6c 8c bd 43 f0 37 be 61 85 ef bd
       0.08203849 -0.06856595 -0.17962746 -0.11695362
000060 0a b2 0a bd 09 f5 34 3e 42 b1 64 3e 8a 18 e9 3d
       -0.033861198 0.17671598 0.22333243 0.113816336
000070 e0 76 8e bd a9 8b 19 3e 47 71 bf 3d d3 7a 7f 3d
       -0.06956267 0.14994682 0.09347778 0.062372994
000080 5a 0f 47 be 2d f7 13 3e a6 6a 5f 3d 74 84 46 be
       -0.1943945 0.14449759 0.054545067 -0.19386464
000090 0a b0 34 be 5a 69 e0 3b 80 e0 d8 3c 53 a6 38 bd
       -0.17645279 0.0068484964 0.026474237 -0.045080494
0000a0 8d f6 ed 3d bb 43 8c bd b0 11 2a 3b 59 33 91 bc
       0.116192915 -0.06848856 0.0025950484 -0.01772468
0000b0 9a 9e 5a 3e e2 67 32 3e 58 71 c1 bd e0 8a c6 bc
       0.21349564 0.1742244 -0.09445447 -0.024236143
0000c0 72 d1 d6 3d 35 a3 17 3e 1f e1 d0 3b cd bf ae bc
       0.10489167 0.14808352 0.006374493 -0.021331692
0000d0 ba fb a5 3c e0 f5 d7 bc 85 ae ee 3d 7b 06 1b be
       0.020261634 -0.02636236 0.11654381 -0.15139191
0000e0 13 cf f0 3d e8 38 1e 3e 18 5d 51 be 67 da 1e 3d
       0.11758246 0.15451396 -0.20445669 0.038782503
0000f0 1b 1c 8f bd b6 88 ca 3d ae 08 24 3e 6a 44 5c 3e
       -0.069877826 0.09889357 0.16018936 0.21510473
000100 5d 9a b4 b9 6d a1 0c be 2b c2 47 be 1d e6 19 be
       -0.00034447285 -0.13733454 -0.19507663 -0.15029188
000110 10 1d 2f 3d 37 74 73 bc 45 85 6d 3e bf 88 3d be
       0.042752326 -0.014859251 0.2319537 -0.18509196
000120 a7 db 2a 3e 2c d3 33 3e 6b 92 4c 3d d1 a3 f8 bd
       0.16685353 0.17561024 0.049944323 -0.121406205
000130 66 f2 e1 bd c6 24 a5 3d 26 6d aa bd ae bd 0f be
       -0.11032562 0.080636546 -0.083216 -0.14037201
000140 72 26 25 be c0 a8 9d 3c 3c 3c 53 3e d8 1b 65 be
       -0.16127947 0.019245505 0.20628446 -0.22373903
000150 6a 42 a5 3d f8 c5 d9 3d 5d 23 51 3e f4 06 bb 3d
       0.08069308 0.10633463 0.20423646 0.091321856
000160 93 4d 23 bd dc 9e 90 bd 22 75 55 bc 03 7c 4e be
       -0.039868902 -0.0706155 -0.013028415 -0.20164494
000170 d0 15 b3 3c 9c 01 e3 bc 22 1d 49 be 64 ae d3 bd
       0.021860987 -0.027710728 -0.1964002 -0.10335997
000180 06 0d 25 be b9 7c 4e 3e 29 92 60 be aa 56 8d 3d
       -0.1611825 0.20164765 -0.21930756 0.069012955
000190 be 25 e6 bd 28 ed 20 3e 67 2e c4 3d ef 75 0f be
       -0.112376675 0.15715468 0.09579163 -0.14009832
0001a0 48 2a 5c be 58 ea df bd e4 68 11 3e 67 99 f1 bc
       -0.21500504 -0.109333694 0.14200169 -0.029492093
0001b0 a6 ee 43 3e 90 39 61 be 56 28 e2 bd 54 74 4e 3d
       0.19134006 -0.21994615 -0.1104285 0.050403908
0001c0 1e 45 65 bd 24 ad 3b 3d 74 9a d6 3c 52 33 8b 3d
       -0.05597412 0.045819417 0.026196696 0.06796898
0001d0 e9 62 7a bd 38 ed d7 3d 14 2f 34 be e8 6d fe 3d
       -0.061129484 0.10543293 -0.17596084 0.12423307
0001e0 a2 17 2a bd 2a 3a 4e 3e 26 07 dc 3d e5 68 b9 3c
       -0.041526444 0.20139375 0.10743551 0.022633025
0001f0 f9 41 f5 bc f8 a8 fa bd 79 17 31 3e 61 e0 de 3d
       -0.029938685 -0.122392595 0.1729411 0.10882641
000200 cc a3 de bd 8c ce 05 be 82 92 af 3d e9 1f cd 3d
       -0.108710855 -0.13067073 0.08572866 0.10015852
000210 1f 92 11 3c 59 8c 97 bd 22 05 bc 3d 49 d9 3e be
       0.008884936 -0.07399816 0.091806665 -0.18637575
000220 b2 90 f7 3d 8c 54 5b 3e e2 45 1a 3e 1f c1 e4 bb
       0.12088145 0.21418971 0.1506572 -0.0069810296
000230 10 da 56 bd 60 ab 62 be 41 86 9c bc 2f 5a d5 bd
       -0.052454054 -0.22135687 -0.019106986 -0.10417592
000240 7e 56 45 be 7d fa 98 bd c6 1f 3d 3e 71 53 48 be
       -0.19271275 -0.07469652 0.18469152 -0.1956308
000250 2f 94 4a be d7 82 ff bd db ce a1 3d 30 c9 d7 bc
       -0.1978309 -0.124761276 0.07900783 -0.02634105
000260 21 5e 2a be bb 9b 4b 3e 44 ae 2b be 43 92 5e 3e
       -0.1663747 0.19883625 -0.16765696 0.21735482
000270 57 5e 3d be af 31 0c 3e ac 16 07 3e 77 62 cb bd
       -0.18493019 0.13690828 0.13192242 -0.0993089
000280 7f 8b 49 3e e9 de e8 3d c9 dc 86 bb 1c 02 0b 3b
       0.1968212 0.11370642 -0.004115675 0.0021210974
000290 11 37 76 3d 72 b1 48 bd 12 f7 52 be 48 76 cc bd
       0.06011111 -0.04899735 -0.20602062 -0.09983498
0002a0 92 7e 5a be 30 39 89 3b 28 c8 31 ba 7a 33 36 be
       -0.21337345 0.0041877255 -0.000678184 -0.17793074
0002b0 60 92 77 3d 2d da 0f be 89 3c 1b be 55 e2 9c bd
       0.06044233 -0.14048071 -0.15159811 -0.07660357
0002c0 8c f4 48 3d 1a 2a 5d bd 02 1b 1b 3e 24 29 80 bd
       0.049061343 -0.05399523 0.15147021 -0.06257847
0002d0 6c a6 98 bd 32 7d 5d be ad 3d 5d 3d 64 4d 47 be
       -0.074536175 -0.2162979 0.054013897 -0.19463116
0002e0 ad 64 51 be 28 fb e8 bd 33 ba 49 bd 75 f1 c9 bd
       -0.20448561 -0.11376029 -0.04924984 -0.098605074
0002f0 53 41 05 be af 72 c4 bd 72 b7 4f be 66 92 ef bd
       -0.130132 -0.09592187 -0.20284823 -0.11697845
000300 5b 3e 2d 3d 23 a8 b2 bd 67 14 e9 bd db cf 37 3e
       0.042295795 -0.08723476 -0.113808446 0.17950384
000310 02 2b 5c 3e 5f a6 06 bd 80 09 a3 3b 1b 64 84 3c
       0.21500781 -0.032873508 0.0049754977 0.016161015
000320 d0 36 51 be ee b8 80 3c 87 aa 3f be 2c 6a 79 bd
       -0.20431066 0.015713181 -0.18717395 -0.06089227
000330 67 6f a2 3c 4d fe 03 3d 2d a0 9e bd 28 7c e2 3d
       0.019828511 0.032224942 -0.07745395 0.11058837
000340 0f 2a c0 bd a5 6f b1 3d 9c 2c 7b 3d 91 6a 01 be
       -0.09383022 0.08663873 0.06132184 -0.12638308
000350 5e e5 61 be 0a 9d de 3d ce e3 d1 bd 44 e5 21 3e
       -0.22060153 0.108697966 -0.102485284 0.15810114
000360 bc fa 29 be ab f5 84 bc b8 eb 43 be 8e 10 23 be
       -0.16599554 -0.016230425 -0.19132888 -0.15924284
000370 da af a6 bd 23 a1 ae bd ad 3f cf bd 80 6a 3b 3e
       -0.0813901 -0.08526828 -0.10119567 0.18302345
000380 08 de 75 bd 7d 14 24 3e 7b 7b 04 3e cc 7d 4b be
       -0.0600262 0.1602344 0.12937729 -0.19872206
000390 16 1e a2 3d a7 2d 1f 3e fa 54 11 3e 97 20 0b be
       0.07915895 0.15544759 0.14192572 -0.13586651
0003a0 fa cc 6a bd d0 4a b7 bd a1 19 1f be 83 7a cf bc
       -0.057324387 -0.08949816 -0.1553712 -0.025326973
0003b0 e2 54 0b 3e 2f 91 8e bd 2c 41 99 3d b0 80 14 3e
       0.13606599 -0.06961285 0.07483134 0.14502215
0003c0 ee 04 27 be 63 a4 b9 3d 57 6a 0a be c1 27 41 3e
       -0.16310474 0.090645574 -0.13517128 0.18862821
0003d0 60 cd fd bd b1 2c fe 3d 94 47 49 3e 5a 61 5a 3e
       -0.12392688 0.12410868 0.19656211 0.21326199
0003e0 0c c5 56 3e 52 36 b2 bd 19 11 a1 bd 54 fb ea 3d
       0.20973605 -0.08701767 -0.07864589 0.11473718
0003f0 c8 ed 6d 3b 33 e0 58 3e ec 6f da bc 99 49 81 3d
       0.0036305059 0.21179275 -0.026664697 0.06312866

layer1.bias f4 [100]
000000 8f e9 73 3b 2b d1 f0 3a cc 0e 58 bb dc ac 05 bb
       0.003721807 0.0018372884 -0.0032967804 -0.0020397222
000010 1e 08 67 ba 96 5e 48 bb 88 5f 1d bb 98 be c9 ba
       -0.000881316 -0.0030573956 -0.002401324 -0.0015391884
000020 4f b9 22 bb 50 47 12 3a 4e 10 cd 39 0b f7 1a 3a
       -0.002482969 0.00055800844 0.00039112795 0.0005911446
000030 9a 0a 8a 3b b9 15 61 bb 0f 7f 01 3b 9a 93 2b bb
       0.0042126896 -0.0034345223 0.001975957 -0.0026180507
000040 bf d3 91 bb ca d6 40 3a 75 c5 3f 3b 98 08 db ba
       -0.004450291 0.0007356225 0.002926198 -0.0016710935
000050 a2 cb f1 3a ca 08 42 ba 01 8b 68 3a 64 ef 83 bb
       0.0018447528 -0.00074018224 0.0008870811 -0.0040263403
000060 20 03 74 3a 2a 7e 0d bc 07 b2 1b bb 98 bb ae 3b
       0.0009308327 -0.008636037 -0.0023757236 0.0053324215
000070 cd c2 6e bb 73 67 63 bb 9e 76 82 ba 29 cf ed 3a
       -0.0036432028 -0.0034699112 -0.0009953564 0.0018143404
000080 50 f9 02 ba ae e8 89 39 08 57 bd 3a 88 1a 63 bb
       -0.0004996257 0.00026304036 0.0014445493 -0.0034653265
000090 42 88 61 bb aa 67 9d 3b 04 6d 15 ba 48 4a bf ba
       -0.0034413491 0.0048036175 -0.00057001435 -0.0014594281
0000a0 63 ac 55 3b 48 be c6 39 a0 ff 2b bb f6 8a dd 3b
       0.0032603971 0.00037907274 -0.0026244894 0.00676095
0000b0 73 1f 28 3b 3e e9 52 ba 3a 98 93 38 92 6b cc ba
       0.002565351 -0.000804562 7.0378606e-05 -0.0015596023
0000c0 cd 17 a5 3a d3 30 56 bb bd fe 3f 3b f5 31 4f 3b
       0.0012595594 -0.003268291 0.0029296123 0.003161547
0000d0 74 4b 05 bb 3e 96 25 ba 36 d4 a1 3a 24 77 af 3b
       -0.0020339163 -0.00063166383 0.0012346569 0.005354779
0000e0 2d 95 db 3b 48 79 08 3b 58 9b d2 b9 9b 2a 07 bb
       0.0067011327 0.0020824242 -0.0004017006 -0.002062476
0000f0 2b 08 24 ba 69 f6 d5 ba 74 41 7b ba b4 b2 f0 3a
       -0.00062573206 -0.0016324046 -0.00095846434 0.0018363805
000100 13 8e cf b9 e8 35 12 b9 8c bd 26 3b 05 59 05 3b
       -0.0003958797 -0.00013943727 0.0025442569 0.002034725
000110 88 75 08 3c 8a 35 4c 3b b8 ba 1b 3b a1 fb ac bb
       0.008328803 0.0031159841 0.0023762416 -0.00527902
000120 cf 5d 68 bb 5f fa 32 bb f6 29 11 bb 48 ba 27 ba
       -0.0035456305 -0.0027309877 -0.0022150255 -0.00063983025
000130 96 2c 97 3b 9d 42 94 bb 42 c2 36 ba ad e3 cc 3a
       0.0046134694 -0.0045245425 -0.00069716957 0.0015631818
000140 fc ca 09 bb 67 83 34 ba 92 9a 09 bb a8 6f 04 3b
       -0.002102553 -0.00068860356 -0.0020996672 0.0020208154
000150 d0 8d da 38 08 48 0d bb d4 74 bd 3b 1c f1 b1 bb
       0.00010421465 -0.0021557827 0.0057817493 -0.005430354
000160 d7 ae fd ba e6 01 43 bb 7e 83 e4 3b 3a 64 68 bb
       -0.0019354474 -0.002975577 0.006973683 -0.003546013
000170 24 84 3b 3b 2a 26 7f 3b c8 50 63 bb 89 04 8b ba
       0.0028612697 0.003893266 -0.00346856 -0.001060621
000180 b0 77 29 3b 14 0a 73 3a d4 77 9f bb 50 b3 96 b8
       0.0025858693 0.0009271216 -0.0048665795 -7.185957e-05

layer2.weight f4 [100, 100]
000000 39 a7 28 3e c3 b8 b8 bd 96 60 96 bd 2b 19 a6 3d
       0.1647004 -0.090196155 -0.07342641 0.08110269
000010 27 a6 44 bd 85 90 17 be 7e 3c d9 3a cb 19 12 be
       -0.048010018 -0.14801224 0.0016573814 -0.14267652
000020 9f fe f3 3d 9a 92 27 3e 17 74 f1 3d db ca 01 3d
       0.119137995 0.16364518 0.117897205 0.0316876
000030 35 d4 05 3d b8 a3 eb 3d 35 3f 8e bd 01 18 05 3e
       0.03267308 0.11505836 -0.069456495 0.12997438
000040 a6 4f bf 3d 4a 25 18 3e 14 32 c8 bd f7 f5 0a be
       0.093413636 0.14857975 -0.09775177 -0.1357039
000050 9e 8f eb bc 39 c2 26 be 10 11 21 be 84 29 8e bd
       -0.028755005 -0.16285028 -0.15729165 -0.06941512
000060 b1 b9 a7 3c 80 ee db bd 1b 10 13 be d8 3f 66 3d
       0.020474287 -0.1073885 -0.14361612 0.05621323
000070 15 99 34 3d 8e 6c 6b 3d b5 30 1d 3e dc b1 79 bd
       0.044091303 0.057476573 0.15350612 -0.060960636
000080 40 21 40 3d 1c 25 04 bd 13 3a 41 bd 17 b9 1a be
       0.04690671 -0.032261953 -0.047174525 -0.15109669
000090 64 dd 0a 3e 13 ef 31 3d db cd fe bd 68 97 c0 3d
       0.13561016 0.04344089 -0.124416076 0.094038785
0000a0 95 fd 9d bd 69 37 b1 bd 65 3d 97 bd a2 cb 03 be
       -0.077143826 -0.08653147 -0.07384757 -0.12870649
0000b0 69 f6 c7 3d aa d8 01 3e df 11 f9 3d 97 f8 00 3e
       0.09763796 0.12680307 0.12161612 0.1259483
0000c0 23 af 2f be b6 62 21 3e 2c f8 01 3d 70 2d 10 3e
       -0.17156653 0.15760311 0.031730816 0.14079833
0000d0 c3 6b d1 3b cd b9 6b 3d 77 fa e2 bd 2c ec 9a bd
       0.00639102 0.05755024 -0.11082929 -0.075645775
0000e0 68 24 91 3d f9 ae e8 bc 4e e2 1f 3d e2 3e 1b 3e
       0.07087022 -0.028403746 0.03903418 0.15160707
0000f0 50 78 24 3e 82 3e a2 bd a7 59 1b be 89 43 0c be
       0.1606152 -0.07922079 -0.15170918 -0.13697638
000100 db ff 21 3e 58 3c 56 bd 47 65 ff 3c ad 95 20 bd
       0.15820257 -0.052303642 0.031176222 -0.039205242
000110 64 ca 06 bc 3e 9d 20 be 2c 12 09 3e 25 9e 35 bb
       -0.008226965 -0.15684983 0.13385838 -0.002771267
000120 db 05 48 3d 3e 7f df bd 28 28 20 3e 4d 3d 1f 3e
       0.04883371 -0.109129414 0.15640318 0.15550728
000130 70 ad ba 3d 4d 37 bf bd 73 64 ba bd 60 fb 9f bd
       0.09115112 -0.0933672 -0.091011904 -0.07811618
000140 6b 98 b8 bc 20 89 14 bd 21 a3 1c 3e 8f 8a 06 3d
       -0.022533616 -0.036263585 0.15296604 0.032846984
000150 b7 a4 b9 bd 35 a5 f5 3d 10 0f c4 3d e7 50 e6 bd
       -0.0906462 0.11994401 0.095731854 -0.112459
000160 50 3b 49 3d e7 26 8e bd 36 78 06 bd 3a 91 3a 3c
       0.04912883 -0.06941014 -0.032829486 0.011387164
000170 b0 9f 90 3d 21 4c ed bd d8 94 a8 3d d0 fe 17 bd
       0.07061708 -0.11586786 0.08231515 -0.037108243
000180 04 25 2d bd 81 47 fb bd 69 00 dc bd f7 72 0f be
       -0.04227163 -0.12269498 -0.10742266 -0.140087
000190 68 3e 09 be a2 45 16 be f3 bb fc bb 56 d9 ea bc
       -0.13402712 -0.14675 -0.007712835 -0.028668087
0001a0 2b 82 01 3c 30 cb 41 bc 27 e2 17 3d 35 39 bf 3b
       0.00790457 -0.011828229 0.03708091 0.005835677
0001b0 7e b4 20 bd 89 f9 84 3d f4 1c 70 bd b6 6b 9f 3c
       -0.03923463 0.064929076 -0.05862136 0.01946054
0001c0 25 cc e1 bd 6b d9 03 3e 54 5f 3c be 19 11 20 3e
       -0.110252656 0.12875907 -0.1839574 0.15631522
0001d0 7c 86 11 3e 4a 20 e0 3d 6f 36 ea bd b6 c9 f1 bd
       0.14211458 0.10943659 -0.11436164 -0.118060514
0001e0 d4 60 6b bd 59 df 29 be 8c 83 57 3d 60 1e a4 3c
       -0.05746539 -0.16589107 0.052615687 0.020034015
0001f0 0c fe 29 be 4f b3 31 be 25 da ff 3c 45 62 ea 3c
       -0.16600817 -0.17353557 0.03123195 0.028611312
000200 97 b8 1d be 4d 55 b1 3d 50 da 1e 3d 8b 99 fa bd
       -0.15402447 0.08658848 0.038782418 -0.12236317
000210 b1 ea 9e bd 04 70 b2 3d 40 78 a3 bd 3a df 9c 3d
       -0.077596076 0.087127715 -0.0798192 0.076597646
000220 a4 a1 93 3d 55 6a e8 bd 92 4a d9 3d 56 92 e8 3d
       0.07208565 -0.11348406 0.10609926 0.11356036
000230 46 39 29 bd 6f f0 7e bd c2 53 03 3e 5f 62 b4 bd
       -0.041314386 -0.062241014 0.1282492 -0.08807825
000240 b0 36 13 3d 6c 20 a0 bd 29 1e df 3d 8c 59 a3 3d
       0.035940826 -0.07818684 0.108944245 0.07976064
000250 67 83 7a bd 45 f7 17 bd bd e4 de 3d ff f7 9b bd
       -0.06116047 -0.03710105 0.10883472 -0.07615661
000260 09 39 d8 3d 5a 2c b9 3d 3b 5c cc 3d 8f 2b d5 bd
       0.105577536 0.090416625 0.09978529 -0.10408699
000270 80 e5 22 be 09 1c c1 3d ce a8 12 be d9 e7 fe 3d
       -0.1590786 0.094291754 -0.14322206 0.12446565
000280 1a 14 87 bb 97 48 97 3c ba 6d 80 bd c3 8f 34 3c
       -0.0041222693 0.01846723 -0.06270929 0.011020604
000290 36 a5 92 3c 12 96 15 be bb c0 81 3d 19 2a d6 3d
       0.017901044 -0.14608029 0.063355885 0.10457248
0002a0 6f dd 78 bd a9 34 35 be 09 56 8c 3d 3c d4 16 3e
       -0.06075805 -0.1769587 0.068523474 0.14729398
0002b0 b4 87 28 3e 1d 24 8b 3b ba 1a de bd 4d 9c 01 bd
       0.16458017 0.0042462484 -0.108449414 -0.0316432
0002c0 c2 66 a0 3d d8 14 4b 3d 61 0f dc 3c fb c9 13 3e
       0.078320995 0.049580425 0.026862802 0.14432518
0002d0 b5 4d 04 bd 3b b7 4d bd ec 22 00 be 4d fb 1c be
       -0.03230067 -0.05022357 -0.12513322 -0.15330239
0002e0 4f 4b 33 3d a0 ca e8 bd cc 13 8e bd 60 df 9f 3d
       0.04377299 -0.11366773 -0.0693737 0.07806277
0002f0 25 9e 5f 3d 0c 3b 96 3d 24 85 a6 bd ef d9 85 bd
       0.054594178 0.07335481 -0.08130863 -0.06535708
000300 d6 bd 25 be 01 05 de 3d 0d 7e 17 3d 3b ed 06 3e
       -0.16185698 0.10840798 0.036985446 0.13176434
000310 42 3e 03 bb 72 a6 28 3d 5e 3a dc 3d 41 10 9d 3d
       -0.0020026122 0.04117436 0.1075332 0.07669116
000320 73 05 0c be c1 46 1f 3d d6 7b 39 bb 51 f1 f1 3d
       -0.13673954 0.038885836 -0.0028302572 0.118136056
000330 1b ff 97 bd 83 21 40 bc 8c ca 0b 3c 35 1a 15 bb
       -0.074217044 -0.01172674 0.008532178 -0.0022751216
000340 9e 2f 7e 3d 90 9c 20 3e f6 c0 81 bc 12 3d 16 be
       0.06205713 0.15684724 -0.015839081 -0.14671734
000350 34 8e 1a be 13 f4 29 3e cd e6 ce bc 2d c0 04 3e
       -0.15093309 0.16597013 -0.025256539 0.12963934
000360 2a 6e 1f be 46 d4 d6 3d 32 84 a7 3d 07 97 51 bd
       -0.15569368 0.10489707 0.08179511 -0.05116942
000370 9b aa 14 bd ef 12 89 bd 28 6b d6 3d 99 8e fc 3d
       -0.036295515 -0.066930644 0.10469657 0.12331886
000380 aa ea 9e 3d 70 7f dc 3d a8 a5 06 3e 8d c8 b6 3d
       0.07759602 0.10766494 0.1314913 0.08924971
000390 47 f8 c0 bd d0 d6 13 3d 8f cc ab bc d6 7b 13 bd
       -0.09422355 0.036093533 -0.020971565 -0.03600677
0003a0 b8 fa a4 bc 00 d3 95 bc d1 0b 92 3c 44 50 e9 3c
       -0.020139083 -0.01828909 0.0178279 0.028480656
0003b0 6e 21 1f be 0d b4 b0 3d 3f bc ff 3c 6c d8 00 3e
       -0.15540096 0.08628092 0.031217692 0.12582558
0003c0 17 a8 54 3d 8b e1 88 bc cf 2d 0d 3e 6b b2 e2 bd
       0.051918115 -0.01670911 0.13787006 -0.11069187
0003d0 54 d4 17 be 35 97 bc bd 89 72 09 be c3 a1 2c be
       -0.1482709 -0.09208528 -0.13422598 -0.16858582
0003e0 f7 5e de bd b0 44 a5 3d 59 01 00 be 10 32 70 bc
       -0.10857957 0.08069742 -0.12500514 -0.014660373
0003f0 de b5 93 3d ec 89 d7 3d ea bf fe 3d a4 c5 ee ba
       0.07212423 0.105243534 0.124389485 -0.001821686

layer2.bias f4 [100]
000000 de eb 53 bb f4 55 4f bb 8b 2e 66 ba 36 c4 89 bb
       -0.0032336633 -0.0031636925 -0.0008780739 -0.0042042984
000010 f1 05 8a ba 6a bc 29 3b 12 a2 17 3b 5e 8f 3a bb
       -0.0010530335 0.0025899657 0.0023137373 -0.00284668
000020 c0 9a 1e ba 95 a8 fe 3a d8 bd 5e bb 6d fa 3f bb
       -0.0006050281 0.0019428903 -0.0033987667 -0.0029293553
000030 5d 8b 36 bb 44 3b 0c 3b ca 63 1b bb c0 d9 85 b9
       -0.0027854063 0.002139763 -0.0023710602 -0.00025529973
000040 64 27 2d 3b aa 6c 6c ba a0 76 2c 38 df 50 20 ba
       0.0026421184 -0.0009018878 4.1118474e-05 -0.00061155664
000050 bb a9 a2 ba 2a f8 95 3a 70 76 21 b9 4b d9 fd 3a
       -0.0012410203 0.0011441757 -0.00015398278 0.0019367127
000060 df c7 2c 3b fa e7 cb ba a0 9d 99 b8 ea bc 92 ba
       0.002636425 -0.0015556805 -7.3249685e-05 -0.0011195217
000070 70 2a 07 39 04 28 9e ba 40 d6 23 38 40 a5 47 ba
       0.00012890412 -0.0012066369 3.9061764e-05 -0.0007615872
000080 26 a7 10 bb 50 37 26 b9 26 6b 8f bb 77 6c a4 3b
       -0.0022072284 -0.00015851599 -0.0043767868 0.005017813
000090 a8 5f 99 3b 5a 52 51 3b 10 f9 f2 3a 30 21 dc ba
       0.0046805926 0.0031939954 0.0018537361 -0.0016794559
0000a0 e6 b7 81 3a 5d 2f 1a 3b 46 9c 06 3c 00 28 6a b9
       0.0009896725 0.0023526766 0.008215969 -0.0002233088
0000b0 62 0a 70 bb 78 a6 09 bb 40 f4 32 3c 7a 87 34 bb
       -0.0036627282 -0.0021003764 0.010922492 -0.002754657
0000c0 c8 88 8d 3b 50 f5 f1 39 6c 6a 06 3b a1 74 15 bb
       0.004319284 0.00046149874 0.002051021 -0.0022805112
0000d0 b9 e4 2f 3a bb ce 31 3b 8a dd ca bb ee 24 26 3b
       0.00067098025 0.0027131278 -0.0061909603 0.0025351602
0000e0 87 c4 cf bb fd 7d c0 3b 3e ed 7c ba 90 e5 56 b9
       -0.0063405666 0.005874394 -0.0009648389 -0.00020494149
0000f0 c2 20 8b 3b 30 03 c0 b8 e0 f2 90 3b ab 0d bc ba
       0.0042458484 -9.155867e-05 0.004423484 -0.0014347335
000100 cd 01 ee ba 3c 40 d7 b7 30 1c af b9 de d9 de 3b
       -0.0018158496 -2.5659909e-05 -0.00033399602 0.006800874
000110 e2 e6 ff b9 21 94 c5 ba 84 82 0d bb d2 ea 6a 3b
       -0.0004880941 -0.0015074053 -0.0021592686 0.003584553
000120 7e 14 d4 3b a7 59 0e 3b 77 a9 41 3b 05 ad e5 3a
       0.0064721694 0.0021720917 0.0029550472 0.0017522877
000130 4d fe 4b 3b b9 c7 50 bb ee ff c4 3a 66 d9 65 3a
       0.0031126917 -0.0031857325 0.0015029886 0.00087680516
000140 06 06 e5 3a 89 2b 94 3a 96 f0 ab ba d6 f8 be ba
       0.0017473109 0.0011304478 -0.0013117965 -0.0014570008
000150 a2 c8 64 3b 77 b4 f3 b9 b2 11 a4 3b 6e 02 6f ba
       0.0034909626 -0.0004648303 0.0050069923 -0.00091174885
000160 f1 8e 09 3b a5 6c 22 3b 3c 51 7a 3b c7 47 2b bb
       0.002098974 0.0024783995 0.0038195392 -0.0026135312
000170 4a 6c 7a 3b 09 23 d9 ba 88 87 b6 bb 42 2b c6 3a
       0.0038211518 -0.0016566227 -0.005570356 0.0015119093
000180 1a 56 96 ba f2 bb 48 3b da 31 0f 3a 6d 2f 63 bb
       -0.0011469752 0.0030629602 0.00054624456 -0.003466572

mu.weight f4 [6, 100]
000000 31 18 14 3e 9e c7 ce 3d da 62 8e 3b ed df cc 3d
       0.14462353 0.10096668 0.00434528 0.10003648
000010 2b f7 d2 bd 84 89 5e 3e f6 55 99 3d 10 9d d7 bd
       -0.1030105 0.21732146 0.07487099 -0.10528004
000020 4d 30 1b be e2 a9 24 3e 42 69 8d 3c de 1e 7a 3e
       -0.15155144 0.1608043 0.017262105 0.24425837
000030 4c 06 56 be 85 84 1f bd 46 83 64 be 0e 2c 60 3e
       -0.2090084 -0.03894474 -0.22315702 0.21891806
000040 4b df bc bd d5 2f 64 3e 3b c4 0c 3e 89 a2 99 bc
       -0.09222277 0.22283871 0.13746731 -0.01875426
000050 8c 74 8e 3d 54 6e de 3d 2c 04 5b 3e 8d 32 64 3e
       0.06955823 0.10860887 0.2138831 0.22284909
000060 29 88 04 be fe c4 48 be 72 b4 3a 3e 2f 16 ca bd
       -0.12942566 -0.19606397 0.18232897 -0.098675124
000070 14 e2 ed 3c 46 52 90 bd 90 a7 d9 3a b0 d9 19 bd
       0.029038467 -0.070469424 0.0016605724 -0.03756112
000080 97 cc 3e 3e 7a 3a ec 3b 4c c1 70 3d c2 9b 57 3e
       0.18632732 0.0072091194 0.058778092 0.2105551
000090 1f 81 35 3e 8b 3f 9c 3d 40 da aa bd 3d 54 24 bd
       0.17725037 0.07629307 -0.08342409 -0.0401194
0000a0 ba 3c 8f 3c ca 21 6b be 4c 18 64 be 9a 5a 4f be
       0.017485011 -0.22962108 -0.22274894 -0.20249406
0000b0 6e 1a 3a 3d c8 c0 05 be 2e ea 8b 3d 31 ee 1b be
       0.04543536 -0.13061821 0.068317756 -0.15227582
0000c0 e3 aa 01 be 2c 35 5a 3e c7 26 1f be 6f aa bb 3d
       -0.12662844 0.21309346 -0.15542136 0.09163367
0000d0 23 cb 24 3d 84 78 70 3d 01 0b 14 3e 96 81 fc bd
       0.04023279 0.058708683 0.14457323 -0.12329404
0000e0 81 b4 5a be 3e ad 18 3c 11 4f 34 be 4e 9d 50 bb
       -0.2135792 0.009318648 -0.17608286 -0.0031832042
0000f0 ae da 34 3e 83 2b 0d be 6c 27 3a be 35 a2 bc 3c
       0.17661545 -0.1378613 -0.18179101 0.023026565
000100 34 b8 51 bd bc 25 15 3c 02 13 7a bd 24 07 3d 3e
       -0.05120106 0.009103235 -0.061053284 0.18459755
000110 a6 54 25 be 1f 61 02 3e 59 d6 50 be 6e b1 92 3d
       -0.16145572 0.12732361 -0.20394267 0.07162748
000120 30 f4 40 3e dc b8 0d 3d 6c ba 8d 3b 7b cb 30 bd
       0.1884315 0.034600124 0.0043252017 -0.043162804
000130 17 05 63 3e 0e fc 06 be 05 a2 60 be d4 66 54 be
       0.2216991 -0.13182089 -0.21936806 -0.20742351
000140 81 5d 20 be 6e a3 27 be 12 7a ec bd bf 48 96 3d
       -0.15660669 -0.16370937 -0.115467206 0.07338094
000150 da db 9b 3d 8d fd 52 3d e6 e3 6d be 0a 6e 2c be
       0.07610293 0.051511336 -0.23231468 -0.16838852
000160 3c 17 09 3e 25 3a 17 3e 8c 33 7a be a5 31 b0 3c
       0.1338777 0.14768274 -0.24433726 0.021508047
000170 ed c9 01 bd d1 b1 83 3c c5 7f 4d bd c4 db 42 be
       -0.031686712 0.016076 -0.05017068 -0.19029146
000180 49 36 da bd f6 a1 25 3e 48 c3 06 3e 32 5c 2f 3e
       -0.10654885 0.16175064 0.13160431 0.17125013
000190 6d bd 86 bd 64 a2 31 ba b8 13 0c be cb 61 23 3e
       -0.06579099 -0.0006776212 -0.13679397 0.15955274
0001a0 6a 96 38 bd b3 30 4d bb 0a 64 2b 3e c2 b6 25 be
       -0.04506532 -0.0031309545 0.1673738 -0.16182998
0001b0 68 2d 2e 3d 37 ab 5f 3e 7a 50 16 3b 30 14 b4 bd
       0.04252377 0.21842657 0.0022936151 -0.08792913
0001c0 0d 9d a2 3d 9f 9f 25 be e0 71 66 39 29 d9 7b bb
       0.07940111 -0.16174172 0.00021976931 -0.0038428998
0001d0 b2 ea 61 be 08 21 78 3e d7 d6 ce bd e4 a7 50 3e
       -0.22062185 0.2423135 -0.10099571 0.20376545
0001e0 26 3e 36 bd f6 04 b9 3d 70 c9 54 bd 77 e8 ba bb
       -0.044492863 0.09034149 -0.05194992 -0.0057039815
0001f0 70 d3 e0 ba 96 09 16 be a5 09 41 3e 15 30 81 bc
       -0.0017152857 -0.14652094 0.18851335 -0.015769998
000200 98 50 eb bd 03 c7 ef 3d c8 62 7f bc 4a 83 93 bd
       -0.114899814 0.1170788 -0.015587516 -0.07202776
000210 51 ba df 3d 79 a2 0d 3e 08 32 b6 3d 5d 20 8b bd
       0.10924209 0.1383151 0.088962615 -0.06793282
000220 1e b4 c8 3d a5 bc 9a 3d 2e a8 0a 3e 5f df 63 bd
       0.097999796 0.07555512 0.13540718 -0.055632945
000230 42 77 8b bd 20 b9 94 bc 40 53 5e 39 f2 ba 1c 3c
       -0.06809856 -0.01815468 0.00021202583 0.009566056
000240 11 76 10 3e b9 d1 d8 3d fc 93 0d be 64 2d 46 be
       0.14107539 0.105868764 -0.13825983 -0.19353253
000250 ad 7d ca bd 2c a9 31 bc 5e fb 9a 3d 3e 50 0a bd
       -0.09887252 -0.010843556 0.07567476 -0.03376793
000260 f8 f5 96 3d 5e ae 2c 3e 56 0b 61 3e 37 ed 06 be
       0.073711336 0.16863391 0.2197698 -0.13176428
000270 7c f1 35 bd 91 d1 8d bd 74 5b ae bb 30 67 3b 3e
       -0.04441975 -0.06924737 -0.0053209607 0.18301082
000280 a0 a3 61 bd 89 5c a9 3d b1 94 70 3e 50 fe 48 bc
       -0.055087686 0.08269603 0.23494221 -0.012267664
000290 ce be 0e be f2 14 f6 bd e5 19 59 3c f6 2d e0 3d
       -0.13939974 -0.12015714 0.013250803 0.10946266
0002a0 e4 d1 18 be 22 e9 47 3d ae 15 cc bd 46 c3 b4 3d
       -0.14923817 0.048806317 -0.099650726 0.08826308
0002b0 be 10 e7 bd 1b 7b d2 bd c8 f3 36 3d a5 96 5a 3d
       -0.1128249 -0.10277387 0.04466608 0.053366322
0002c0 b1 30 0e bd fd e8 dd 3a 66 ce 12 3e 9a c9 4b 3e
       -0.034714404 0.0016930398 0.14336547 0.19901124
0002d0 1d d9 db bd 0c 82 ab 3d 6a d6 11 bd ec e9 4f 3e
       -0.107347704 0.08374414 -0.03560487 0.20304078
0002e0 15 c1 e7 3c ba b4 61 3c 4e 86 e8 3d d9 94 5f bd
       0.02829031 0.013775999 0.113537416 -0.05458531
0002f0 43 ba 11 be 25 56 61 3e 51 79 1e 3d 99 c0 e8 bd
       -0.1423121 0.22005518 0.038689915 -0.1136486
000300 70 de 38 be e3 6d 4d 3e d3 7b ff 3d 47 2d 31 3d
       -0.18053603 0.2006145 0.124747895 0.04325607
000310 e1 30 04 3e 55 97 53 3c 28 85 44 3e cb 06 22 3e
       0.12909271 0.012914498 0.1919142 0.15822904
000320 91 1d 7d bd bc 59 37 bc f3 7d 3a be cd 99 24 be
       -0.061795775 -0.011190828 -0.18212108 -0.16074295
000330 57 61 1a be c3 f0 6b 3d 26 db da 3d 08 92 5d be
       -0.15076195 0.057602655 0.106863305 -0.21637738
000340 36 a7 6d be f3 79 f6 bc bd b8 3c be a9 35 29 be
       -0.23208317 -0.030087447 -0.18429847 -0.16524376
000350 0a 48 e6 3d fc 99 8d 3d 41 3c 38 be db 0b 4b be
       0.11244209 0.06914136 -0.17991735 -0.19828741
000360 20 e4 46 3e 4a db 64 3e 37 1c 1d bd 20 4b 2b be
       0.1942296 0.22349277 -0.038356986 -0.16727877
000370 a7 c1 55 3e e8 95 a0 3b 40 17 36 3e 7c 19 9d bd
       0.20874654 0.0049006827 0.17782307 -0.076708764
000380 a9 63 05 be 59 ce 6b bd ed bb 5e 3e 5d b1 32 3e
       -0.13026299 -0.057569835 0.21751375 0.17450471
000390 5e 29 2e 3e a4 34 11 be 2d 8a 0b 3e 58 06 6e 3e
       0.17007968 -0.14180237 0.13626929 0.23244607
0003a0 00 08 4b 3e 2f 70 48 3e ea 3c 53 be 0d dc 1e 3e
       0.1982727 0.19574045 -0.20628706 0.1551363
0003b0 ee 03 24 be b6 16 18 be 23 ae fa 3d fe 99 39 3d
       -0.16017124 -0.14852414 0.12240245 0.045312874
0003c0 0d 67 a4 3d be 1e c9 3d ec 5c 46 3c 22 92 df bd
       0.08027468 0.09820317 0.012107115 -0.109165445
0003d0 69 1c 07 be 48 eb 32 3e a7 62 b6 bd 8b 96 d9 bd
       -0.13194431 0.17472565 -0.08905535 -0.10624417
0003e0 49 07 bc bd 52 16 41 3e 2a ee 1d bd 0d 0e f6 bd
       -0.09181077 0.18856171 -0.03855721 -0.12014399
0003f0 6c 5e c7 bd 8d 91 a9 3d 44 86 2a be 50 a9 d0 3d
       -0.097348064 0.08279715 -0.16652781 0.10188544

mu.bias f4 [6]
000000 7f 84 c4 3b 12 c7 a4 ba 24 9b 59 3c ce 40 19 bc
       0.00599724 -0.0012571535 0.013281617 -0.00935383
000010 53 56 71 3a 3a ff 2b bc
       0.0009206284 -0.0104978625
