pytorch-maml-rl/saves/maml-halfcheetah-dir/policy-0.pt (torch_old, 52201 bytes, 7 tensors)

sigma f4 [6]
00000000: d182 b43b a054 87bc 7311 f43b 2021 3abd
00000010: 4a34 1a3c 7c31 ab3c
0.0055087586 -0.016519845 0.007448369 -0.045441747 0.009411881 0.02089762

layer1.weight f4 [100, 20]
00000000: 3dc7 51be 8876 3c3e fda8 0a3d 2ecc c53d
00000010: aa90 7cbd 18e8 46be 2920 25bd bf9b 35be
00000020: 5a4e dcbd 2ad2 3e3d 6730 533e 862b b03c
00000030: 5691 b03d fc34 333e cd65 593d 4125 063d
00000040: 23fe 29be b75c bf3d 940c 2dbe c07f 23be
00000050: 21c9 a73d d955 8ebd b98c 35be a90f f3bd
00000060: 9a16 0ebd a443 333e 1be4 623e 1dd6 e93d
00000070: a95c 94bd eec7 183e 6b5a be3d a400 6e3d
00000080: 447e 44be 080b 103e 625e 8f3d 1cf3 5dbe
00000090: 0047 1dbe 88fc 3f3c 80e0 d83c ef0d 39bd
000000a0: 3235 ea3d 5435 81bd 0ab8 393b a3ee 75bc
000000b0: 60e8 5b3e 9766 313e 757b c5bd 3c46 cfbc
000000c0: 099b d73d 18e7 153e 99d9 8b3c 8662 2fbd
000000d0: f611 1f3d a2c4 52bd 6d30 b93d 06af 1cbe
000000e0: d4df f13d e2e6 293e 185d 51be 6479 223d
000000f0: 778f 90bd ef42 c83d 08a4 223e 1aaf 5e3e
00000100: 605a 8c3a 85a6 11be 4475 4bbe 4e58 1cbe
00000110: 758a 2c3d 7d01 a0bc 8fb2 643e ff73 4ebe
00000120: 40a1 383e a06b 2a3e 9b59 983d 8744 debd
00000130: 68d6 f9bd 0066 a13d 266d aabd 53d0 0ebe
00000140: 3360 26be 31b9 5a3c 30a2 513e 4724 63be
00000150: ca96 a83d 0279 d83d 2c7a 4f3e 1f10 b73d
00000160: 6734 24bd b4e2 9ebd 2fe7 65bc 371c 4abe
00000170: 4dc3 9abb 7ad3 22bd d41e 57be 7a6b aebd
00000180: 3049 2bbe e2d3 533e 2992 60be 339c 8d3d
00000190: 524a e7bd d96c 273e 2516 c53d 0781 0dbe
000001a0: 8916 5abe 4e07 e2bd 2fd1 103e 884b f1bc
000001b0: 21e6 3d3e f28e 5ebe ffa7 e7bd 459c 283d
000001c0: d2b9 17bd fc2d 163d 1479 c93c 487f b33d
000001d0: 3665 84bd 1adc db3d 142f 34be 9b9a ff3d
000001e0: 8ba6 2bbd 4ebd 4c3e 7faa e03d dcf2 ab3c
000001f0: da6f 02bd 5dc3 f6bd b138 303e 9292 de3d
00000200: 9faa e0bd bb27 0abe 1db3 b03d 7836 d63d
00000210: d2b3 3b3b e1c3 97bd a093 c53d 220c 3dbe
00000220: 9bed 083e 7071 5a3e e245 1a3e a5b6 d5bb
00000230: b71a 5abd fe9f 61be 4aa3 a0bc acce d3bd
00000240: 6afb 46be 26b3 9abd f681 3d3e 9f9e 47be
00000250: 1301 4bbe 8d0a f6bd 149a a83d 7424 16bd
00000260: c9e6 31be 8ad1 263e 00b1 32be 2f63 653e
00000270: 3fd2 3dbe 92d5 083e ac16 073e 9114 cdbd
00000280: c4a1 493e 988b d73d 6eba 61bb 68f5 193b
00000290: 33d2 773d 8180 42bd 6f56 54be b80c cebd
000002a0: 6147 5ebe 6969 c23b 8a13 c6bb 77c3 3bbe
000002b0: 9ded 8d3d 3911 17be 4fe7 0bbe 1a5c 9abd
000002c0: 3479 413d bf83 59bd 021b 1b3e 1d0e 76bd
000002d0: 6dec 97bd 1404 61be 8344 5a3d d658 47be
000002e0: 8d35 50be dc8c e4bd 64d7 3dbd 919f cbbd
000002f0: 199b 0bbe bf29 bdbd 8494 52be 1cdd febd
00000300: 5884 0c3d 1512 87bd 1eba 04be 41e4 393e
00000310: 2296 523e ec46 13bd 8009 a33b f0eb 843c
00000320: 68a1 51be c348 453c cb0b 40be aa96 7dbd
00000330: ce90 9b3c 2054 003d c210 9fbd 934a e43d
00000340: ca2d c2bd 40be aa3d 3276 863d 85a5 e8bd
00000350: cc2a 6bbe 5e05 e23d 4f81 cabd e7a6 113e
00000360: a060 2dbe e66e a4bc b8eb 43be dd0b 24be
00000370: dbd2 a7bd ef17 94bd ad8e cfbd 0ffd 393e
00000380: 1096 71bd c6a0 213e 7f0c 043e 4468 4bbe
00000390: f947 b23d 8e38 1c3e 73fc 113e a4d6 16be
000003a0: 696b 85bd c6c5 5ebd aef0 1ebe c1d9 2bbd
000003b0: cf92 ee3d 9a5b 98bd 2c41 993d 3e88 133e
000003c0: 354b 27be 2353 aa3d b13e 0abe d0d8 403e
000003d0: d348 01be 2684 ff3d 295f 493e 8f97 5b3e
000003e0: 9ab8 583e df84 abbd 5fdc a1bd 8011 e33d
000003f0: c8ae ae3c 9ed5 533e 7439 45bd 9093 c83d
-0.2048616 0.18404591 0.033852566 0.09658085 -0.0616614 -0.19424474 -0.040313873 -0.17735194
-0.10757132 0.046587147 0.20623933 0.021505129 0.08621471 0.1750068 0.0530756 0.03275037
-0.16600852 0.09343856 -0.1689933 -0.15966702 0.08192659 -0.06949968 -0.17729463 -0.11868221
-0.034689523 0.17506272 0.22157328 0.11417792 -0.07244236 0.14920017 0.092945896 0.05810608
-0.19188792 0.14066708 0.07000424 -0.2167477 -0.15359116 0.011717923 0.026474237 -0.045179304
0.114359275 -0.06309 0.0028338456 -0.015010509 0.21475363 0.17324291 -0.09642688 -0.025302045
0.105276175 0.14638937 0.017071532 -0.04281857 0.03883549 -0.051457055 0.090424396 -0.15301141
0.1181027 0.16591981 -0.20445669 0.03966655 -0.07058614 0.097783916 0.15882885 0.21746483
0.0010708086 -0.14223678 -0.19868952 -0.1526806 0.04212423 -0.01953196 0.2233374 -0.20161436
0.18030262 0.16642618 0.07438966 -0.10852914 -0.12199098 0.07880783 -0.083216 -0.13946657
-0.16247635 0.013349817 0.20472026 -0.22181807 0.08231886 0.105699554 0.20261449 0.08938622
-0.040089037 -0.07758084 -0.014032169 -0.19737326 -0.0047229887 -0.03975246 -0.21007854 -0.08516593
-0.16727138 0.20686296 -0.21930756 0.06914558 -0.11293472 0.16350116 0.09623364 -0.13818751
-0.21297659 -0.110365495 0.14142297 -0.029454961 0.18544818 -0.21734217 -0.113113396 0.041164655
-0.037042446 0.036664948 0.024593867 0.08764511 -0.06464617 0.107353404 -0.17596084 0.124806605
-0.041906875 0.19994089 0.109700195 0.020989828 -0.03184495 -0.12048981 0.17209126 0.108678
-0.109700434 -0.13491718 0.08627913 0.10459608 0.0028641117 -0.07410408 0.09647298 -0.1846166
0.1337189 0.21332335 0.1506572 -0.006522017 -0.053248134 -0.22033688 -0.019609112 -0.10342154
-0.19431844 -0.07553701 0.18506607 -0.19494103 -0.19824629 -0.12013731 0.08232513 -0.03665586
-0.17373194 0.1629087 -0.17450333 0.22401117 -0.18537234 0.1336272 0.13192242 -0.10013688
0.19690615 0.10524672 -0.0034443396 0.002349222 0.060503196 -0.047485832 -0.20736097 -0.1006102
-0.21706916 0.005932976 -0.0060448097 -0.18336283 0.06930087 -0.14752664 -0.13662456 -0.07537098
0.04723473 -0.05310416 0.15147021 -0.060072053 -0.074181415 -0.21974212 0.053287994 -0.19467482
-0.20332928 -0.11159679 -0.04634799 -0.09942544 -0.13633384 -0.09236478 -0.20564467 -0.12444517
0.0343059 -0.06595246 -0.12961623 0.18153478 0.20565084 -0.03595631 0.0049754977 0.016225785
-0.20471728 0.0120412735 -0.18754499 -0.061911263 0.018989947 0.031330228 -0.07766868 0.111470364
-0.0948139 0.083370686 0.06565513 -0.11359695 -0.22965544 0.1103618 -0.09887945 0.14223824
-0.16931391 -0.020072412 -0.19132888 -0.1602015 -0.08194514 -0.072311275 -0.10134635 0.1816294
-0.058981 0.15783986 0.12895392 -0.19863993 0.08705134 0.15255949 0.14256458 -0.14730316
-0.065146275 -0.05438783 -0.155215 -0.041955713 0.11649095 -0.074393466 0.07483134 0.14407441
-0.16337283 0.08316638 -0.13500477 0.18832707 -0.12625436 0.12476377 0.19665207 0.21444534
0.2116417 -0.083749525 -0.079033606 0.11087322 0.021323577 0.20686957 -0.048150495 0.0979377

layer1.bias f4 [100]
00000000: 20d3 ee39 34e7 f13a 6c38 133a ae7d 5039
00000010: 086e 703a 5a17 b8ba 2896 a5ba 4e68 c7ba
00000020: 3636 833a b2e8 4a39 5deb e8b9 6513 34b7
00000030: 4d1d 9c3a e8e6 0bbb eb7a d539 8534 13b6
00000040: 1b60 dfba fbe6 353a c92a 9d3a 37f5 e837
00000050: 7288 7438 dfaf 453a cc4a d83a 68b2 10bb
00000060: 5bcb 4dba ecb0 1c38 6d1f fbba d3b9 7d39
00000070: 1469 b0ba af75 b9ba 095c f339 3b6f 0d3b
00000080: 2873 83ba 463f 3039 a185 68bb a1bf 53ba
00000090: 88b9 1fbb 6881 043a a27b b0ba 4992 6439
000000a0: fff5 d6ba be26 5bb9 ddc3 93ba fda4 043a
000000b0: 1eb6 e5b9 6b64 4e3a 273d 9f3a a01a 27ba
000000c0: 4d0a 083b cd2e 95ba 84af 553b 0b8a 2bba
000000d0: 1c4f 6fb9 1a17 d7b9 4de5 57ba 1473 94ba
000000e0: 737c ea3a d1c1 37ba f9e3 55ba ac84 283b
000000f0: 2271 2d3a 1c21 f33a b8c1 98b9 ac15 20b9
00000100: b9a4 91ba a0d6 01ba 8d17 4f3a 400c 3a3a
00000110: 45d3 0a3b 564c 533b f57b 88b9 81ef 83ba
00000120: f268 c9ba 4556 e1b9 7c0d b5ba a975 9739
00000130: 95f6 8ab9 5ce1 44ba 37c8 a8ba 6e25 23b9
00000140: 186e 8c39 8340 e4b8 90dd 12bb 708d c23a
00000150: 3b6c 663a 7aae c239 4da5 8e39 17d9 3dbb
00000160: f812 cc39 9985 ac3a 33f7 c63a e907 71ba
00000170: d05b 3f3a e69d 09ba 450c 813a bdb5 98ba
00000180: a1ad a3ba 6bd9 213a ebd6 90b9 e9d7 1d3a
0.00045552198 0.0018455745 0.00056160125 0.00019883245 0.00091716694 -0.0014045045 -0.0012633251 -0.001521358
0.0010010663 0.00019350907 -0.00044425848 -1.0733352e-05 0.0011910588 -0.0021347348 0.00040718107 -2.1935277e-06
-0.0017042191 0.0006939021 0.00119909 2.7770742e-05 5.8301208e-05 0.00075411604 0.0016501783 -0.0022078995
-0.0007850432 3.735807e-05 -0.0019159146 0.00024197185 -0.001345905 -0.0014149452 0.00046417143 0.002158119
-0.0010028826 0.00016808239 -0.003548004 -0.0008077566 -0.002437206 0.00050546834 -0.001346458 0.0002179827
-0.0016400217 -0.000208999 -0.0011273582 0.00050599856 -0.00043813972 0.000787324 0.0012148962 -0.0006374512
0.0020758093 -0.0011381746 0.0032605836 -0.00065437023 -0.00022822287 -0.00041025208 -0.00082357676 -0.00113258
0.0017889872 -0.0007009777 -0.0008159276 0.0025713844 0.00066162844 0.0018549296 -0.0002913603 -0.00015266862
-0.0011111713 -0.0004952941 0.00078999327 0.00070971623 0.0021183055 0.0032241545 -0.00026032297 -0.0010065885
-0.0015366359 -0.0004297962 -0.0013813223 0.00028888628 -0.0002650513 -0.0007510388 -0.0012877051 -0.00015558835
0.00026784907 -0.000108839035 -0.0022409894 0.0014843177 0.00087899313 0.0003713256 0.0002720751 -0.0028968507
0.00038924045 0.0013162374 0.0015179872 -0.0009194599 0.0007299753 -0.0005249664 0.0009845576 -0.0011650842
-0.0012487659 0.00061740604 -0.00027625947 0.0006021248

layer2.weight f4 [100, 100]
00000000: a55f 243e c775 b8bd d536 93bd e712 963d
00000010: 04b6 49bd 5a3c 14be cbf8 38bb c9d5 10be
00000020: afbd f13d bc44 253e cb5a f13d 807d 033d
00000030: bab7 083d c553 f03d e258 8ebd c9b2 043e
00000040: 4617 c33d b22b 153e c45d c7bd fb7a 02be
00000050: 4784 f1bc 8f3d 25be 12ce 20be 81c8 96bd
00000060: d1cb 9a3c 4194 e7bd f63e 19be 2eb5 563d
00000070: e47f 393d 8446 5e3d 4c66 1c3e 99ae 6abd
00000080: d0e7 3f3d a8cf 12bd 621a 52bd b6f9 1fbe
00000090: bf24 0c3e 34bb 253d 08ea 03be 83c3 b53d
000000a0: 2b2b 9fbd fa52 b4bd 0396 a0bd 75a5 05be
000000b0: fcd4 c33d 92ab 013e 38f6 eb3d 75a9 fd3d
000000c0: c4c9 30be 0b93 213e b4c4 e13c ccc9 113e
000000d0: 555f b03b 2a6f 6e3d 19f8 e2bd ee2b abbd
000000e0: 79fe 8f3d ea5a e5bc 5a32 0b3d ec3a 1d3e
000000f0: 863d 253e 90e7 a5bd 9a95 1cbe 661f 07be
00000100: 175b 203e 6aba 62bd 8124 073d 4615 2fbd
00000110: db73 a5bb 6660 23be 5d09 0b3e a046 e5ba
00000120: dba7 4f3d 17dd e6bd 5672 1a3e 3d6a 1d3e
00000130: 56f1 b23d cb2d c8bd 526c bebd 779c a5bd
00000140: d38a e7bc 8aec 3bbd c788 183e 1857 0a3d
00000150: 6758 c4bd 0958 f83d 27ae bc3d 6e2f debd
00000160: aec6 4a3d f02e 93bd ff06 f5bc c521 233c
00000170: 677e 8d3d d466 e6bd 2248 b33d cb81 2ebd
00000180: 4f7d 5fbd 5c64 febd 884e dcbd 62b1 13be
00000190: bd8b 13be f394 13be a09f 45ba 10df 18bd
000001a0: 4ee3 8d3c a286 0dbc 4657 4a3d 402f 4d3c
000001b0: 3d2a edbc 0a79 973d 64f4 63bd ccfc ef3c
000001c0: 918d e7bd fd91 073e b2c4 2fbe e998 233e
000001d0: 12fb 1a3e fb3c d83d f8ea e1bd 6c08 d5bd
000001e0: 7058 5ebd e305 26be fef6 633d a04a d03c
000001f0: 8e93 22be 1e19 31be 5a08 413d f255 db3c
00000200: ca87 0dbe bd34 b03d 543e 883d 67e1 e0bd
00000210: 35fd a0bd de92 b23d b2fe a6bd 2f67 a73d
00000220: ad56 aa3d ee86 e7bd 697e db3d a664 d83d
00000230: eda7 06bd 7830 62bd 111b 073e a869 a2bd
00000240: fdeb 313d e056 84bd 2759 f03d 59f6 913d
00000250: 36be 72bd 42de 1fbd ac38 d53d 8958 78bd
00000260: f716 d83d a855 c53d 268a dc3d 715f d6bd
00000270: 0340 1ebe e046 c63d cd19 15be c4c0 053e
00000280: b1aa ad3b 3ef4 973c 3077 6abd 0211 b73c
00000290: 65f3 963c 6e92 1abe 9ad7 8f3d 8e88 ef3d
000002a0: d889 6bbd 662a 2dbe 1311 913d cec5 1c3e
000002b0: 89f2 343e 3cfd 003c 9ad5 eebd 3edb 02bd
000002c0: 9e67 9c3d 177f 5d3d 9b06 ff3c 1555 143e
000002d0: 0354 0ebd a6f0 50bd 0432 fbbd eb8d 17be
000002e0: cf54 383d 5d7a c5bd a743 85bd 9b6a a43d
000002f0: 4587 583d 0098 a13d 0f3e 98bd a6ef 81bd
00000300: a249 28be 7827 e63d da6d 1a3d 951f 0c3e
00000310: f878 71bb ed78 383d e42d e53d 58d3 9c3d
00000320: 030b 0ebe 5048 2e3d 8619 d3b9 2a8b e93d
00000330: 37f7 80bd d751 31bc f0f2 363b 7c73 20bb
00000340: 8275 813d 23c8 273e fe0b 99bc e414 0fbe
00000350: df95 1cbe 711e 2d3e 90b5 c5bc 7fdd 0f3e
00000360: b9f5 1cbe d9ad d93d f437 a23d 996b 5dbd
00000370: 92f3 1fbd e08d 8bbd d659 d13d deb4 fd3d
00000380: 6916 ae3d 8bb1 e43d 65fa 053e e9dd b53d
00000390: e893 c1bd b72a 023d 7953 b6bc 3bcb 03bd
000003a0: a6bd c5bc 0cc9 89bc 4a32 ae3c a9fd e63c
000003b0: e64a 1abe 6477 b03d 0121 e83c 3c65 fe3d
000003c0: 2f04 5a3d bad2 d5bb f006 133e 61eb d4bd
000003d0: 8f4a 1cbe 3eb2 abbd 3778 0fbe 9aab 29be
000003e0: 987c d2bd f15d a83d 4506 02be 197c 94bc
000003f0: 80dd 9a3d 27d8 d83d a4c1 ff3d 17d0 953b
0.1605211 -0.09006839 -0.07188193 0.07327824 -0.04924585 -0.14476147 -0.0028224464 -0.14144053
0.118037574 0.16139501 0.117848955 0.032102108 0.03337834 0.11734728 -0.06950547 0.12958826
0.095259234 0.1456745 -0.09734681 -0.12742226 -0.02948202 -0.16136764 -0.1570361 -0.07362462
0.018896015 -0.11307574 -0.14965424 0.05241888 0.04528798 0.054266468 0.15273398 -0.057295416
0.046851933 -0.035842568 -0.05129469 -0.15622601 0.13685893 0.040461734 -0.12882245 0.088751815
-0.077719055 -0.08804889 -0.078411125 -0.13051398 0.09562108 0.12663105 0.11521572 0.12385837
-0.17264467 0.15778749 0.027559616 0.14237136 0.005382458 0.058211483 -0.11082477 -0.08357988
0.07030959 -0.027997453 0.033983566 0.15354508 0.1613675 -0.08100808 -0.15291443 -0.13195571
0.15659748 -0.05535356 0.032993797 -0.042744897 -0.0050492114 -0.15954742 0.1357779 -0.0017492361
0.05069719 -0.11272638 0.15082678 0.15372558 0.087374374 -0.09774359 -0.09298004 -0.08086484
-0.028264439 -0.045879878 0.14895926 0.033774465 -0.09587174 0.121261664 0.092129044 -0.1084889
0.049505882 -0.07186687 -0.029910563 0.009956782 0.06908875 -0.11250082 0.087539926 -0.04260425
-0.054562863 -0.12421486 -0.10757166 -0.14423135 -0.14408775 -0.14412288 -0.00075387396 -0.037322104
0.017320301 -0.008638056 0.049399637 0.012523472 -0.028950805 0.07396133 -0.05565299 0.029295348
-0.113062985 0.13239284 -0.17164877 0.159763 0.15134838 0.10558506 -0.11031145 -0.10401997
-0.05428356 -0.16213183 0.055655472 0.025426209 -0.158766 -0.17294738 0.047127105 0.02677438
-0.1382133 0.08603809 0.06652513 -0.10980492 -0.078607954 0.08719419 -0.08154048 0.081739776
0.08317313 -0.11305033 0.1071747 0.10566072 -0.03287499 -0.055222005 0.13193919 -0.079303086
0.043437947 -0.064618826 0.117357545 0.07127065 -0.05926343 -0.03903032 0.104112 -0.06063131
0.10551255 0.09635478 0.10768537 -0.10467423 -0.15454106 0.09681487 -0.14560623 0.13061816
0.005299889 0.018549081 -0.057242572 0.022346977 0.018426606 -0.15094921 0.070235446 0.116959676
-0.057504505 -0.16910705 0.07083335 0.15309832 0.17670645 0.007872876 -0.11661835 -0.031947367
0.07636951 0.05407628 0.03113108 0.14485581 -0.03474809 -0.05101075 -0.12265399 -0.14800231
0.045002755 -0.096424796 -0.06507044 0.08028146 0.052863378 0.0789032 -0.07433712 -0.063445374
-0.16434339 0.11237997 0.03770242 0.13683923 -0.0036845785 0.0450372 0.111903936 0.07657498
-0.13871388 0.04254943 -0.00040264073 0.114034966 -0.062971525 -0.010822735 0.0027915798 -0.0024482897
0.06321241 0.1638494 -0.018682476 -0.13972813 -0.15291546 0.16906144 -0.024134427 0.14049338
-0.15328111 0.10628862 0.079208285 -0.05405769 -0.039050646 -0.0681417 0.10222213 0.12388013
0.08500368 0.11166676 0.13083799 0.08880217 -0.09452039 0.031779017 -0.0222566 -0.032176238
-0.024138283 -0.0168195 0.021264214 0.028197126 -0.15067634 0.08616522 0.02833605 0.12421653
0.053226646 -0.0065253647 0.14358115 -0.103964575 -0.15262817 -0.083836064 -0.14010702 -0.16569367
-0.102776706 0.08221043 -0.12697704 -0.01812558 0.07561779 0.10588103 0.12488106 0.0045719254

layer2.bias f4 [100]
00000000: 7917 68bb 1dc0 44b9 d52a 76ba 5e09 c7b9
00000010: a8ba 90ba 97bc bcb9 61f4 b039 c9fd e3ba
00000020: 40c8 14b9 3095 d639 9b1e 83ba 0bc9 0bbb
00000030: 6545 47ba e9fb 5f3a 26b9 1aba 1c07 153b
00000040: 9b1c 563b 7b57 af39 9b18 8d3a 31f8 9db8
00000050: 9958 373a c637 683a 6357 fbba 1917 92ba
00000060: 8a6a 2a39 77c3 45ba 9e65 48bb 6d73 f439
00000070: 9664 2539 6f4e 54ba 5096 413a b53c b5b8
00000080: 56a9 92ba 3a7b 7539 0003 9dba c0f5 513a
00000090: 530d ba3a 572b 67ba 7cfe 2638 f54d 17ba
000000a0: 6a65 da39 37f2 9b39 908c db3a c3e1 77ba
000000b0: ff76 1938 b29f 123a f253 bb3a 6919 a3ba
000000c0: def1 063b 5c04 2f3a 6c4a 8d3a 3adf 8a38
000000d0: 8081 6f3a 1f1e 9e39 11d8 82bb d65c e7b9
000000e0: 8a3f eeb9 43b5 a63a 398a 44ba bf40 56ba
000000f0: 2233 5d3a bab3 193a 68ef 163b c68b 2eba
00000100: e3f4 3539 e844 adba f79b 3539 8b83 ba3a
00000110: 97e9 483a bf11 5fba 3379 00ba d4bd cd38
00000120: 8d7a 773b aeeb 8d3a c314 e23a 0555 18ba
00000130: dde8 60ba cf03 bf39 824b 3339 61be 613a
00000140: b4d1 d7b9 5a14 1fb9 5660 75b9 546f 6cba
00000150: 4b63 1eba d50b fe3a 2b93 fe3a c059 7bb7
00000160: 12f4 753a 652c 7d3a f1a0 05ba 6e3a e5ba
00000170: eb0c 1c3b c204 92b9 a31a 91ba b61a c9b7
00000180: ab1c 6db9 b07b e437 23e2 fcb7 e739 e33a
-0.0035414381 -0.00018763584 -0.0009390538 -0.00037963217 -0.0011041956 -0.00035998665 0.00033751412 -0.001739436
-0.00014188979 0.00040928414 -0.0010003628 -0.0021329548 -0.0007601588 0.00085443124 -0.0005902223 0.0022739833
0.0032670859 0.0003344378 0.0010764779 -7.5325726e-05 0.0006994098 0.00088584085 -0.0019175824 -0.00111458
0.00016252152 -0.000754408 -0.0030578147 0.00046625306 0.00015773097 -0.0008098846 0.0007384764 -8.64206e-05
-0.0011189382 0.00023410926 -0.0011979043 0.0008009337 0.0014194645 -0.0008818409 3.981449e-05 -0.00057718094
0.0004165576 0.00029744368 0.0016750265 -0.00094559434 3.6588866e-05 0.00055932545 0.0014291985 -0.0012443486
0.0020590941 0.000667637 0.0010779626 6.621932e-05 0.00091364235 0.0003015855 -0.0039930423 -0.00044128922
-0.00045442238 0.0012718815 -0.00074974034 -0.00081731 0.00084381003 0.0005863268 0.002303088 -0.0006658401
0.00017352733 -0.0013219388 0.00017319607 0.0014229877 0.0007664202 -0.0008509419 -0.00049008726 9.81052e-05
0.0037762255 0.0010827684 0.0017248619 -0.0005811009 -0.0008579621 0.00036433197 0.00017098899 0.00086114375
-0.00041164237 -0.00015171003 -0.00023400909 -0.0009019275 -0.00060420175 0.0019382188 0.0019422522 -1.4981662e-05
0.00093823776 0.00096577994 -0.00050975295 -0.0017488727 0.002381141 -0.00027850835 -0.001107056 -2.3973505e-05
-0.00022612761 2.7237314e-05 -3.0146044e-05 0.0017335982

mu.weight f4 [6, 100]
00000000: 4e3e 1a3e 8bd9 e03d 49fa 28bc 9b50 e23d
00000010: 7f79 ebbd 4db8 693e 42de 973d 8610 e9bd
00000020: a360 1bbe 920e 253e c2d8 2e3c ae88 713e
00000030: dc2a 62be cdd4 00bd adc4 62be d0f0 5f3e
00000040: 2590 acbd 2e9f 6a3e 59ad 093e d494 90bc
00000050: f137 833d b364 d73d afac 6e3e 3fe0 673e
00000060: 4cc3 fbbd f602 53be 978e 333e 756a cbbd
00000070: fb0b 243d 13e5 8abd 78ef 09ba 5037 1cbd
00000080: dc05 513e 9ac0 1e3c 3caa 623d 951c 603e
00000090: af9f 2e3e 2bbb 733d e3ef bdbd d481 28bd
000000a0: affa 523c 614f 6cbe 53f0 6abe b885 43be
000000b0: 3243 c13c b47b 06be cad5 523d ff81 2abe
000000c0: bed3 02be 4e4c 613e 2cfc 29be 7824 b13d
000000d0: e1c0 1d3d 4a3c 723d 01c5 0d3e 234c e7bd
000000e0: 24e8 57be 152c 273b f282 27be 9a83 46bc
000000f0: 98a4 353e 150e 0ebe 38bd 34be 6004 203c
00000100: 73f6 59bd 0eac 513c e4a9 85bd 0440 443e
00000110: 590f 29be 2108 073e ad14 56be 715a 843d
00000120: 78c6 393e 8180 c73c 00c6 1f3a 38a9 2dbd
00000130: 9811 6d3e 1f84 09be 717c 5bbe 2f99 5abe
00000140: 367b 1ebe 750d 1cbe 9471 ffbd 822c 983d
00000150: fc41 bd3d 726b 533d 2b9e 71be 09bb 2dbe
00000160: 7806 013e 4907 273e 8557 6abe 11e5 a63c
00000170: e08f 24bd 514d 3f3c 1649 70bd 2a19 3bbe
00000180: 4cfa e7bd 4066 223e 09e8 fa3d 388e 223e
00000190: 832b 74bd e803 0b3b fe02 0fbe 843e 2c3e
000001a0: eb6f 47bd b34e ddbb 3475 2b3e fac6 24be
000001b0: e5cc 2b3d 0d0b 613e 765c 0a3c f19e 9dbd
000001c0: a67a 953d 7ae8 29be 3a31 a1ba 32c3 89bb
000001d0: 86ed 57be b4d3 7a3e 9846 c9bd 38ba 4d3e
000001e0: c4cc 52bd 0037 db3d 31a1 55bd ac96 6fbb
000001f0: dc09 7cbc bb4f 22be ef73 443e 9b53 84bc
00000200: 2df9 e9bd 9d8d eb3d 143e d2bc 3741 b2bd
00000210: 7129 e53d e133 0b3e c059 a23d 917e 87bd
00000220: 40ee c13d 3b3d 863d 2795 f13d 5d4d 63bd
00000230: 84a0 68bd 246f 9fbc a04c c53a 9ace 9f3b
00000240: b303 073e 7123 e13d a90c f4bd e110 4dbe
00000250: 7bc0 dcbd 90c0 81bc 02e4 953d 1aaa b8bc
00000260: 9624 823d ec9e 2d3e 5e9e 643e be88 0bbe
00000270: 8cc5 10bd f8c6 86bd 2329 6abb e4dd 3e3e
00000280: bc9e 36bd d7d3 c23d 5f4b 713e 0b3a 89bc
00000290: d928 0fbe cb45 0cbe 7a0e e73b 8861 ee3d
000002a0: cb64 15be a980 503d 0042 efbd 1d97 ae3d
000002b0: f40c f8bd 0e52 c5bd 6be9 533d 8666 373d
000002c0: 84ca 49bd 3e1f 68bc 1c38 123e 7e33 493e
000002d0: e2ba febd 5b3b a63d e2ce 3dbd a101 493e
000002e0: 2697 f33c 426d 973c ec03 f23d c562 83bd
000002f0: 1d90 05be 0e89 6b3e 9ce7 cc3c 5955 dfbd
00000300: 516a 36be b3f1 553e af2e fc3d 50fd 333d
00000310: eb5c f43d c27c 5e3c ce39 553e 797f 2c3e
00000320: 4a85 75bd 2212 50bc 5129 44be 5f07 43be
00000330: 9fbc 0fbe 92f8 673d ecb2 d53d f157 61be
00000340: 565b 6dbe 64e5 02bd dde6 4abe 56a7 22be
00000350: 2f44 e43d e615 a13d f18d 1ebe de9c 50be
00000360: 2eed 493e a28c 633e aec2 37bd 0144 17be
00000370: 0af4 513e be1b 2f3c e544 2b3e 62e3 96bd
00000380: 4257 10be 85a4 33bd 9267 643e 8cc6 333e
00000390: 1c0b 263e 9614 f5bd 8105 103e f451 753e
000003a0: 236a 4d3e 1b5a 3e3e 4b8b 57be d609 2a3e
000003b0: 03b9 22be 0848 1fbe 72c8 f73d 8217 423d
000003c0: 2745 9c3d 6f61 c93d 9d59 893b dc20 d6bd
000003d0: 929d 03be 755e 393e 04d1 a3bd f92d bdbd
000003e0: 08ea b1bd fd51 4a3e fe2e 0abd df71 e7bd
000003f0: 9dc1 d8bd df25 aa3d 5b8d 16be decf bf3d
0.1506283 0.10978993 -0.010313579 0.110505305 -0.11497783 0.22824211 0.07415439 -0.11380105
-0.15173583 0.1611884 0.010671796 0.23587295 -0.22086662 -0.031452943 -0.22145338 0.21869206
-0.08425931 0.22912285 0.13445033 -0.017649092 0.06407154 0.10517254 0.23308061 0.22644137
-0.12293109 -0.20606598 0.17534862 -0.099324144 0.040050488 -0.06781974 -0.0005261819 -0.038138688
0.20412391 0.0096894745 0.05533813 0.21885903 0.17053102 0.05950467 -0.092742704 -0.04113944
0.01287715 -0.23077156 -0.22943239 -0.19093978 0.023591612 -0.13133126 0.051473416 -0.16651152
-0.12776086 0.22001764 -0.16600102 0.08649534 0.03851402 0.059139527 0.13844682 -0.11293819
-0.21084648 0.0025508453 -0.16358545 -0.012116337 0.17738569 -0.1387256 -0.17650306 0.009766668
-0.053213548 0.012797369 -0.06526545 0.19165045 -0.16509761 0.13186695 -0.20906325 0.06462563
0.18142116 0.024353268 0.0006094873 -0.042397708 0.23151243 -0.13429306 -0.2143419 -0.21347497
-0.15476689 -0.15239508 -0.12472835 0.07430364 0.09241101 0.05161614 -0.23595493 -0.1696588
0.12600124 0.16311373 -0.22884949 0.0203729 -0.040176272 0.0116761485 -0.05866345 -0.18271318
-0.11327037 0.15859318 0.122512884 0.15874565 -0.05961181 0.0021212045 -0.13965985 0.16820723
-0.048690718 -0.0067537664 0.16743928 -0.16091529 0.04194345 0.21976872 0.008444896 -0.07696331
0.07298784 -0.16592589 -0.0012297996 -0.0042041773 -0.21086702 0.24494821 -0.09827918 0.20090568
-0.05146481 0.1070385 -0.052155677 -0.0036558313 -0.01538321 -0.15850727 0.1918485 -0.016153147
-0.1142448 0.1150162 -0.025664367 -0.08703845 0.11189545 0.13594009 0.07927275 -0.066159375
0.09469271 0.065546475 0.11796027 -0.0554937 -0.056793705 -0.019462176 0.0015052743 0.0048769237
0.13185005 0.10993088 -0.11916477 -0.2002597 -0.107789 -0.015838891 0.0731888 -0.022542048
0.063546345 0.16955155 0.22326037 -0.13626382 -0.035344645 -0.06580919 -0.0035730086 0.18639332
-0.044584975 0.095130615 0.23563908 -0.01675131 -0.13980426 -0.13698499 0.0070512863 0.11639696
-0.1458923 0.05090395 -0.116825104 0.08524916 -0.121118456 -0.09634791 0.051736277 0.04477551
-0.0492654 -0.014167605 0.14279217 0.19648549 -0.12437989 0.0811679 -0.046339877 0.19629528
0.02973516 0.018484715 0.11817154 -0.06415323 -0.13043256 0.23001501 0.025012784 -0.10904951
-0.17813994 0.20892982 0.12313592 0.04394275 0.11931785 0.013579549 0.20822832 0.16845502
-0.059941567 -0.012699636 -0.19156386 -0.1904578 -0.14036797 0.05663354 0.10434517 -0.22006203
-0.23179373 -0.031957045 -0.1981463 -0.15884146 0.111458175 0.07865505 -0.15483834 -0.2037234
0.19719383 0.22221616 -0.044863395 -0.14772035 0.2050325 0.010687767 0.167255 -0.073675886
-0.14095786 -0.04385807 0.22305134 0.17556208 0.16215175 -0.11966817 0.140646 0.23957044
0.20060019 0.1858906 -0.2104923 0.16605315 -0.15890889 -0.15554821 0.12098779 0.0473857
0.07630377 0.09833037 0.004191591 -0.10455486 -0.12853077 0.18102439 -0.07998851 -0.09237284
-0.08687216 0.19757839 -0.03373622 -0.11301016 -0.10583804 0.083080046 -0.1470236 0.093658194

mu.bias f4 [6]
00000000: e69a 1fba 51f8 163a c2c7 cf3b 2bb4 98bb
00000010: cf53 d838 2efd 91bb
-0.00060884503 0.0005759048 0.0063409517 -0.0046601496 0.00010315293 -0.00445523
